module/vision/Segmentation/data/segmentation_model.onnx (onnx, 331445 bytes, 46 tensors)

dec1.0.weight f4 [64, 32, 3, 3]
0	0x3bb09494	0.0053888056
1	0x3c24b249	0.010052272
2	0xbc7a38f9	-0.015272372
3	0x3c47c07f	0.012191891
4	0x3c3eb16c	0.01163898
5	0x3adbb23f	0.0016761495
6	0x3c12772f	0.008939548
7	0x3ca3e385	0.02000595
8	0x3c74f59f	0.014951139
9	0xbb7b1304	-0.0038310895
10	0xbb3f85e0	-0.0029224083
11	0x3ab4a5e4	0.0013782349
12	0xbc102466	-0.008797741
13	0xbc917265	-0.017754743
14	0xbc6351d6	-0.013874492
15	0xbb5fc5e1	-0.0034145045
16	0xbcb3455c	-0.021883659
17	0xbc0f3516	-0.008740684
18	0xbb564304	-0.0032693753
19	0xba37a533	-0.00070055126
20	0xbb7a0962	-0.0038152565
21	0xbb8d8fda	-0.004320127
22	0xbbaae57c	-0.005215345
23	0xbb86b8b2	-0.004111373
24	0xbb28e608	-0.0025771875
25	0xbba96a62	-0.0051701525
26	0xbb7501a3	-0.0037385009
27	0xbc2637fd	-0.010145185
28	0xbc1ab8b7	-0.0094434535
29	0xbb8d5dfc	-0.0043141823
30	0xbb4e6d0c	-0.0031498102
31	0xbbdb9b58	-0.006701868
32	0xbb0213b8	-0.001984818
33	0xbbd57561	-0.006514237
34	0xbb9dba0f	-0.0048134397
35	0xbb78f339	-0.003798677
36	0xbbbf9358	-0.005846422
37	0xbcaa6949	-0.020802157
38	0xbc50f37a	-0.012753362
39	0x3cca31e6	0.024681997
40	0x3c48ea80	0.01226294
41	0x3b7b5b18	0.0038353857
42	0x3b9e3d81	0.004829109
43	0x3c863916	0.016384643
44	0x3cd2a803	0.02571488
45	0x3bdefa5f	0.006804749
46	0x3a422b9e	0.0007407012
47	0xbbd335dc	-0.0064456295
48	0x3c49aa7f	0.012308716
49	0xbbf00fc6	-0.007326099
50	0xbc1ced54	-0.009578068
51	0x3c0902b3	0.00836246
52	0xbc5c472d	-0.013444704
53	0xbabbc153	-0.0014324583
54	0xbc787d8e	-0.015166653
55	0x3bc63acb	0.006049489
56	0xbb9a1034	-0.0047016386
57	0xbc9c70da	-0.01909678
58	0xbb47e960	-0.0030504093
59	0xbc9519d8	-0.0182008
60	0xbca0ccfd	-0.019628996
61	0xbc0f12ec	-0.008732539
62	0xbc3ce02c	-0.011528056
63	0x3c55ae69	0.013042071
64	0x3c23ed57	0.010005317
65	0xbbba86de	-0.005692347
66	0x3c8366f8	0.01604031
67	0x3c099b8a	0.0083989
68	0xbb93c615	-0.004509697
69	0x3c4d5d9a	0.012534523
70	0x3c634811	0.013872162
71	0xbb561a09	-0.0032669327
72	0x3bfa7911	0.007643827
73	0x3bb93c24	0.0056529213
74	0x3b519175	0.0031977568
75	0x3c216658	0.009851061
76	0x3a0fa533	0.00054796337
77	0x3c379efd	0.011207339
78	0x3b7bc7d3	0.0038418665
79	0xbbb05eb4	-0.0053823832
80	0x3b09170e	0.0020918283
81	0x3b0dabe2	0.0021617343
82	0xba9a64e4	-0.0011779335
83	0x3b1a2a10	0.0023523606
84	0x3b8e9271	0.0043509533
85	0xba594dea	-0.0008289503
86	0xbac83c49	-0.0015276755
87	0xbb0e1d29	-0.0021684861
88	0xbb82524a	-0.003977095
89	0xbc1d637c	-0.009606238
90	0xbb00ffbf	-0.0019683687
91	0x3b89447a	0.0041890712
92	0x3ba15096	0.0049229367
93	0xbae3718c	-0.0017352565
94	0xbb9fc33e	-0.0048755696
95	0xbbcdaa55	-0.0062764087
96	0xbc2492e0	-0.010044783
97	0xbc8936c0	-0.01674974
98	0xbc3e5f43	-0.011619392
99	0xbcc8b6ec	-0.024501286
100	0xbc8fdddd	-0.017561847
101	0xbca62f56	-0.020286243
102	0xbcda1754	-0.026622452
103	0xbc989254	-0.018624462
104	0xbbdc3e07	-0.0067212614
105	0xbd0184a0	-0.03162062
106	0xbb41595f	-0.0029502732
107	0x3c053890	0.008131161
108	0xbb98e9da	-0.004666549
109	0xbbeb9f26	-0.007190603
110	0xbb46deb5	-0.0030345146
111	0xbaef7d07	-0.0018271514
112	0xbc5e1d14	-0.013556737
113	0xbbb61503	-0.005556704
114	0xbbb7283c	-0.005589513
115	0xbc57b836	-0.013166478
116	0xbc2c769f	-0.010526328
117	0xbaecf182	-0.0018077346
118	0xbbb4bd20	-0.0055157095
119	0xba943a38	-0.0011308854
120	0x38a42302	7.82665e-05
121	0xbbf1be14	-0.0073773954
122	0xbb945eab	-0.004527887
123	0xb9ff699b	-0.00048716072
124	0xbc1f84d0	-0.009736255
125	0xbb3d3207	-0.002886893
126	0xbbfe22f5	-0.007755632
127	0xbb7b9d21	-0.0038393217
128	0xbc366d35	-0.011134435
129	0xbb4f9d44	-0.003167943
130	0xbbf602e9	-0.007507671
131	0xbbb5eed7	-0.0055521536
132	0xbbae96f9	-0.005328056
133	0xbc166ae1	-0.009180755
134	0xbc2e66c6	-0.01064462
135	0xbb10e772	-0.0022110608
136	0xbc9d406c	-0.019195758
137	0xbc4dfcfa	-0.012572521
138	0x3c59a91f	0.0132849505
139	0x3bc8051d	0.006104125
140	0x3b12e332	0.002241325
141	0x3c38d6f2	0.011281716
142	0x3b79ef1a	0.00381369
143	0x3be7064f	0.0070503126
144	0xbb2c742b	-0.0026314359
145	0x3b8c3613	0.004278907
146	0xbc74a9cd	-0.014933062
147	0x3ad0653e	0.0015899313
148	0x3bffecf0	0.0078102276
149	0xbbd33351	-0.0064453264
150	0x3c717e58	0.014739595
151	0x3cf0fe88	0.029418245
152	0x3a89a2f7	0.0010500838
153	0xbb7340fb	-0.0037117589
154	0x3a43abb4	0.00074642454
155	0xbb25e5fc	-0.0025314083
156	0xbabaff38	-0.0014266735
157	0x3adfa6c4	0.001706325
158	0xba656f24	-0.0008752218
159	0xbb73b4d4	-0.003718664
160	0x3a168185	0.0005741346
161	0xbb7d3985	-0.003863902
162	0x3c7a2597	0.015267751
163	0x3c55a186	0.0130389985
164	0x3c59cb96	0.013293168
165	0x3c7af911	0.015318171
166	0x3b98c775	0.004662449
167	0x3c2eae8e	0.010661734
168	0xbc5fd1d7	-0.01366087
169	0xbbecee49	-0.0072305542
170	0xbbb36605	-0.005474808
171	0xbb605d63	-0.003423535
172	0xbba6e5df	-0.0050933207
173	0xbb92b196	-0.0044767363
174	0xbb04b566	-0.0020249723
175	0xbb98fe7e	-0.0046690097
176	0xb890694a	-6.886067e-05
177	0x3b948257	0.0045321393
178	0xb9656756	-0.00021877637
179	0xbae53cfc	-0.0017489488
180	0xbc0c9795	-0.008581062
181	0xbbe57e34	-0.00700357
182	0xbb835090	-0.0040074065
183	0xbba702ff	-0.0050967927
184	0xbb8a1f65	-0.0042151683
185	0xbbaeb125	-0.005331176
186	0xbb657701	-0.0035013559
187	0xbc08db60	-0.008353084
188	0xbb71ef16	-0.0036916188
189	0x3b6f3b52	0.0036503864
190	0xbc318d6f	-0.010836943
191	0x3a94aa5b	0.0011342274
192	0x3b97ed68	0.0046364553
193	0xbc0e52d6	-0.008686742
194	0xbc4f4c0d	-0.012652409
195	0x3c993c78	0.018705592
196	0x3b30f25f	0.0026999933
197	0x3c13297a	0.008982057
198	0xbc0334a9	-0.008008161
199	0xbc235967	-0.009970046
200	0xbb6d8778	-0.0036244076
201	0xbc11a704	-0.008889917
202	0xbc3417b9	-0.010991984
203	0xbbca3ba9	-0.006171663
204	0xbb8b3a50	-0.0042488948
205	0xbc1d13bd	-0.0095872255
206	0xbc1f5464	-0.00972471
207	0xbba1410a	-0.0049210833
208	0xbc820d3b	-0.01587545
209	0xbb811d37	-0.0039402503
210	0xbac0f3dc	-0.0014721113
211	0xbcaa6239	-0.02079879
212	0xbc3363a3	-0.010949048
213	0xbb9eba34	-0.0048439745
214	0xbc7eee0d	-0.015559685
215	0xbcbb3878	-0.022854075
216	0x3b094832	0.0020947573
217	0x3a82951e	0.0009962653
218	0x3a2f1759	0.0006679199
219	0x39560b38	0.0002041281
220	0xbb8b3272	-0.004247957
221	0xbb3278d8	-0.0027232673
222	0x37df7350	2.6637368e-05
223	0xbaaff3d5	-0.0013424108
224	0xba922163	-0.0011148866
225	0x3caff7ac	0.021480404
226	0x3aa84ce9	0.0012840304
227	0x3c91c112	0.017792258
228	0x3a5a74a1	0.0008333419
229	0xbbf20159	-0.0073854146
230	0x3b11d41f	0.0022251678
231	0x3cb06af8	0.021535382
232	0xb9577f6d	-0.00020551468
233	0x3a46ecf3	0.0007588409
234	0xbb1cddf6	-0.002393601
235	0xbc1198ab	-0.008886497
236	0xbad4e5d8	-0.0016242815
237	0xba420759	-0.00074016076
238	0xbb28ea83	-0.0025774546
239	0xbb7aded2	-0.0038279784
240	0x3b1b074d	0.0023655475
241	0xbbdf0421	-0.006805912
242	0xbb35c263	-0.0027734272
243	0xbb3ac3d9	-0.0028498082
244	0xbc0e8103	-0.008697751
245	0xbc0fc6ad	-0.008775395
246	0x3c3f16cf	0.011663153
247	0xbbece2ff	-0.0072292085
248	0xbb82f091	-0.003995963
249	0x3af0bf4f	0.0018367561
250	0xbbe0236a	-0.006840159
251	0xbb18593c	-0.0023246547
252	0x3c277b14	0.010222215
253	0xb9e194cb	-0.00043026204
254	0xbaeb7fa4	-0.0017967117
255	0x3c16c7c7	0.009202904

dec1.0.bias f4 [32]
0	0x37a7c745	2.0000743e-05
1	0x36a3795e	4.8719075e-06
2	0x36f3d72f	7.267015e-06
3	0x36b93ea1	5.5207206e-06
4	0x35cd449d	1.5293659e-06
5	0xb55dca97	-8.262372e-07
6	0xb6055c8c	-1.9872414e-06
7	0xb7275b51	-9.975237e-06
8	0xb72d85c4	-1.0342748e-05
9	0xb640e371	-2.8742618e-06
10	0x35ddb071	1.6517134e-06
11	0x36a9566c	5.0466533e-06
12	0xb59963c5	-1.1428425e-06
13	0xb5908895	-1.0768587e-06
14	0xb750c3bd	-1.244334e-05
15	0x3620745b	2.3909586e-06
16	0xb6b60b0c	-5.4253087e-06
17	0xb51eefc7	-5.920851e-07
18	0xb78914d2	-1.6341368e-05
19	0x3583a42e	9.808043e-07
20	0xb62f90cd	-2.6161317e-06
21	0xb764e950	-1.3644181e-05
22	0x373827e8	1.0976546e-05
23	0x371d080f	9.3598055e-06
24	0x35eb0863	1.7511305e-06
25	0xb6c1e24c	-5.7781926e-06
26	0xb648621c	-2.985943e-06
27	0x35e6be6f	1.7191759e-06
28	0xb67b154a	-3.7414306e-06
29	0xb5cd10d5	-1.5278589e-06
30	0xb751c5b3	-1.2503401e-05
31	0x36e0b19b	6.696396e-06

dec1.1.weight f4 [32]
0	0x3f5ed529	0.87044007
1	0x3f36464b	0.7120101
2	0x3efbee49	0.49205235
3	0x3f211848	0.62927675
4	0x3f53e1ed	0.8276661
5	0x3f32e274	0.6987679
6	0x3f2e6ea7	0.6813759
7	0x3f3d8bf9	0.74041706
8	0x3f31a6f1	0.6939536
9	0x3f0f81ab	0.5605723
10	0x3f02d251	0.5110217
11	0x3f4839a9	0.7821298
12	0x3f355f4e	0.7084855
13	0x3f091448	0.5354657
14	0x3f291f4c	0.6606338
15	0x3f1346b8	0.57529783
16	0x3f692884	0.91077447
17	0x3e9c61a9	0.3054326
18	0x3f35c022	0.70996296
19	0x3ee592ac	0.44838464
20	0x3f15c3d5	0.5850194
21	0x3f2266ef	0.63438314
22	0x3f3e92b0	0.7444258
23	0x3f476b6f	0.77898306
24	0x3e9c2d8f	0.30503508
25	0x3f3fb9bf	0.748928
26	0x3ef43dce	0.47703403
27	0x3f0a310e	0.539811
28	0x3f07c24f	0.53030866
29	0x3eafd4f9	0.34342173
30	0x3f6a3a32	0.9149505
31	0x3f785c2b	0.9701564

dec1.1.bias f4 [32]
0	0xbdd1ca28	-0.10243636
1	0x3d92e0cc	0.07171783
2	0x3d5f2ee9	0.054488096
3	0x3dbfcbd3	0.09365048
4	0x3d9d6fb9	0.07687325
5	0xbd4361d7	-0.04770073
6	0xbd445431	-0.047931854
7	0xbd8068d2	-0.06269993
8	0x3ecc39ec	0.3988794
9	0x3d0c869a	0.034308054
10	0x3d84217e	0.06451701
11	0x3dbaeb39	0.091268964
12	0x3da515e7	0.08060818
13	0x3cd20e8e	0.025641706
14	0x3d2835b1	0.04106683
15	0x3ef37765	0.47552028
16	0xbca569ed	-0.02019211
17	0x3d5ad247	0.053423192
18	0x3d74b25a	0.0597404
19	0x3d8c6bc7	0.068564944
20	0x3d62c8c9	0.055367265
21	0x3df69aa8	0.12041217
22	0x3dca0084	0.098633796
23	0xbd89227a	-0.06696029
24	0x3de69716	0.11259286
25	0xbd8abe4f	-0.0677458
26	0xbccc4073	-0.024933076
27	0x3e50e98b	0.2040159
28	0x3de883ac	0.113532394
29	0x3d3fa3ad	0.046786953
30	0xbd1d5674	-0.038412526
31	0xbd4d345c	-0.050098762

dec1.1.running_mean f4 [32]
0	0x3d862862	0.06550671
1	0x3d565f36	0.052336894
2	0x3d82c0b5	0.06384412
3	0x3dec92d0	0.1155144
4	0x3bb2bda9	0.005454738
5	0xbe048d2f	-0.12944482
6	0xbd77d167	-0.060502436
7	0x3d2bc525	0.04193606
8	0x3dcc0f70	0.09963882
9	0x3d81f09e	0.06344722
10	0xbd4909a4	-0.04908146
11	0x3df2366a	0.11826785
12	0x3da4fa92	0.08055605
13	0x3d9ad477	0.07560056
14	0xbd185ad9	-0.037196014
15	0x3e2ed6c9	0.17074122
16	0xbd4cf70f	-0.0500403
17	0x3d44141f	0.04787075
18	0xbe0fe8ee	-0.140537
19	0x3e0f97a6	0.14022693
20	0xbcdb19f7	-0.02674578
21	0xbe0093a8	-0.12556326
22	0x3df9323a	0.12167783
23	0xbdf4bea7	-0.119504265
24	0xbba973db	-0.0051712818
25	0xbdfbf0b3	-0.12301769
26	0xbb1a7956	-0.0023570857
27	0x3d009a6a	0.03139726
28	0x3d8dc8e1	0.0692308
29	0x3d5d322f	0.054002937
30	0xbdb6cc49	-0.08925683
31	0xbe4ef3d1	-0.20210196

dec1.1.running_var f4 [32]
0	0x3e870b9b	0.26376042
1	0x3e9e35a4	0.309003
2	0x3db558e0	0.08854842
3	0x3e326e33	0.1742485
4	0x3e3c994d	0.18417855
5	0x3d75dd1c	0.06002532
6	0x3d43a38c	0.047763392
7	0x3e3ac68e	0.18239805
8	0x3e1087a8	0.14114249
9	0x3e5916ae	0.21200058
10	0x3d63effd	0.055648793
11	0x3dacd7e2	0.08439614
12	0x3e96d1ff	0.2945709
13	0x3e50ec87	0.20402728
14	0x3e812a21	0.25227454
15	0x3d40c62e	0.047064
16	0x3e30a288	0.17249501
17	0x3dc18d09	0.094507284
18	0x3dc0005c	0.093750685
19	0x3dba3758	0.09092587
20	0x3e0668b8	0.13125885
21	0x3e1f6050	0.15564084
22	0x3e6b827a	0.22998992
23	0x3e6dd52e	0.23225853
24	0x3d354d07	0.044262912
25	0x3db1247b	0.08649536
26	0x3db99a82	0.09062673
27	0x3d0c12ca	0.034197606
28	0x3d04c79d	0.03241693
29	0x3d256105	0.04037573
30	0x3e8a1928	0.26972318
31	0x3ea87200	0.32899475

dec2.0.weight f4 [64, 24, 3, 3]
0	0x3d93534e	0.071936235
1	0xb9daee95	-0.00041757958
2	0xbd171077	-0.036880936
3	0x3de8c493	0.113656186
4	0x3d978f92	0.07400431
5	0xbcd14abe	-0.025548335
6	0x3dcb08d2	0.09913792
7	0x3d450610	0.048101485
8	0xbd022a06	-0.031778358
9	0xbc70fdba	-0.014708931
10	0x3d5ec91e	0.05439102
11	0x3d904a60	0.07045436
12	0x3cd63262	0.026147071
13	0x3dfdff44	0.12402204
14	0x3e32197a	0.17392531
15	0x3c9db4b5	0.019251207
16	0x3de735ee	0.11289583
17	0x3e0b580d	0.13607807
18	0xbcbf26b9	-0.023333894
19	0xbd647edf	-0.055785056
20	0xbc85d740	-0.01633799
21	0xbc6355da	-0.013875449
22	0xbddce496	-0.10785787
23	0xbc23efa7	-0.010005868
24	0xbc32cb60	-0.010912746
25	0xbcd7f673	-0.026362633
26	0xba34e0c9	-0.00068999507
27	0x3cf46866	0.029834937
28	0xbcd555b8	-0.02604185
29	0x3d01d898	0.0317007
30	0x3c9bab54	0.019002594
31	0xbc77e4f9	-0.015130275
32	0x3ccc9aca	0.024976153
33	0xbcb7944d	-0.022409583
34	0xbd992cff	-0.074792854
35	0xbcadbdbe	-0.02120864
36	0x3d3721d0	0.04470998
37	0x3e049026	0.12945613
38	0x3ca74bd6	0.020421904
39	0x3dae13c9	0.084998675
40	0x3e41ea95	0.18937142
41	0x3d342f49	0.043990407
42	0x3d1e5caf	0.03866261
43	0x3de0b4ad	0.10971961
44	0x3bffd136	0.0078069223
45	0x3ce7acb5	0.028280595
46	0x3d919c8d	0.07109938
47	0x3cf9cd14	0.030493297
48	0x3d3d3af8	0.046198815
49	0x3dd2e159	0.10296888
50	0x3d44c094	0.04803522
51	0x3ca9320b	0.020653745
52	0x3d94ee27	0.072719865
53	0x3d19f487	0.037586715
54	0xbc879859	-0.016552137
55	0x3ba9d50f	0.0051828693
56	0x3caf400d	0.021392846
57	0xbdb18de4	-0.086696416
58	0x3cf20780	0.029544592
59	0xbd59804b	-0.053100865
60	0x3b16db1b	0.002301878
61	0x3d03e88c	0.032204196
62	0x3d33f8dc	0.043938503
63	0xbdd78a87	-0.10524469
64	0xbe32d868	-0.17465365
65	0xbde0919a	-0.10965271
66	0xbe35a9b1	-0.17740513
67	0xbe36b062	-0.17840722
68	0xbe332cd4	-0.1749757
69	0xbdf99840	-0.121872425
70	0xbe4de204	-0.2010575
71	0xbe0d6e78	-0.13811672
72	0xbd9180ee	-0.071046695
73	0xbca37e66	-0.019957732
74	0xbd65f027	-0.05613723
75	0xbc8d4e07	-0.01724912
76	0xbd279c9c	-0.04092084
77	0xbd036143	-0.032075178
78	0xbd938880	-0.0720377
79	0xbc27d75d	-0.010244218
80	0xbd86dfb1	-0.065856345
81	0xbd21d5c9	-0.039510522
82	0xbd7637d5	-0.06011184
83	0xbd1c8245	-0.038210172
84	0xbd2d557e	-0.04231786
85	0xbd89692e	-0.067095146
86	0xbd5c488b	-0.05378012
87	0xbcc93d16	-0.02456526
88	0xbd54d544	-0.0519612
89	0xbcec1c62	-0.028822128
90	0xbb69acd1	-0.0035655985
91	0x3d9087a9	0.07057125
92	0x3b2f0e72	0.002671149
93	0x3d877698	0.06614417
94	0x3dedf252	0.116184846
95	0x3d82ca37	0.06386226
96	0xbca3d0a5	-0.01999695
97	0x3d851643	0.06498387
98	0xbc36cfeb	-0.01115797
99	0xbd631339	-0.055438254
100	0xbdadab70	-0.08479965
101	0xbce99c4a	-0.028516907
102	0xbd512e1f	-0.051069375
103	0xbd539d78	-0.051663846
104	0xbd52f51e	-0.051503293
105	0xbd629bb2	-0.055324264
106	0xbda0490c	-0.078264326
107	0xbd89115d	-0.06692765
108	0x3d3e9a3f	0.04653382
109	0x3d01b494	0.031666353
110	0xbc47777b	-0.012174482
111	0x3de33178	0.1109342
112	0x3d86c574	0.0658063
113	0x3d0226c9	0.03177527
114	0x3d951edd	0.07281277
115	0x3d4be788	0.049781352
116	0x3a1494cb	0.0005667924
117	0xbdb319c2	-0.08745147
118	0xbc4e9bbd	-0.012610373
119	0xbd8c7139	-0.06857533
120	0xbd3285a7	-0.043584492
121	0xbcb39a6f	-0.021924226
122	0xbd00c964	-0.03144206
123	0xbda7ee54	-0.08199754
124	0x3c67ebf5	0.014155378
125	0xbd8885ca	-0.06666143
126	0xbdb3bf3a	-0.08776708
127	0xbd717fb8	-0.058959693
128	0xbd694f7a	-0.05696056
129	0xbcef3c4d	-0.029203558
130	0xbd6e6680	-0.05820322
131	0xbc8ffd1e	-0.01757675
132	0x3d150607	0.0363827
133	0x3d5702e3	0.052492987
134	0x3ce69ab0	0.028149933
135	0x3bbd2b33	0.005772972
136	0x3b8ce565	0.004299807
137	0xbb8cbae2	-0.004294739
138	0x3d4fa24d	0.05069189
139	0xbc99044e	-0.01867881
140	0xbd11a99e	-0.03556215
141	0x3d9078e3	0.07054307
142	0x3d0e32a7	0.034716275
143	0x3c3ae8fc	0.011408087
144	0x3d660fdb	0.056167465
145	0x3d757838	0.059929103
146	0x3d8a5d2d	0.06756053
147	0x3d525476	0.05135008
148	0x3dc0270c	0.093824476
149	0x3d78dbf0	0.060756624
150	0x3da9fb82	0.082999244
151	0x3d87b610	0.066265225
152	0x3d99e223	0.07513835
153	0x3d7050a2	0.058670647
154	0x3d8fa686	0.07014184
155	0x3d18d47b	0.037312012
156	0x3d760de7	0.060071852
157	0x3db761d1	0.08954204
158	0x3cba7826	0.02276237
159	0x3db5abeb	0.088706814
160	0x3dde69d9	0.108600326
161	0x3d81c690	0.06336701
162	0x3c454624	0.012040649
163	0x3d29ea56	0.041483246
164	0x3cb7df7b	0.022445431
165	0x3d01b3af	0.0316655
166	0x3d3c5782	0.04598189
167	0x3d38aeb3	0.04508848
168	0x3c9f22f7	0.019425852
169	0x3d1d9332	0.038470455
170	0x3d4756f9	0.048666928
171	0xbc905ef2	-0.017623398
172	0xb9ebffdb	-0.0004501332
173	0xbcbc4398	-0.02298145
174	0x3c9d2ec9	0.019187348
175	0x3d6c3d43	0.05767561
176	0x3d20783f	0.039177176
177	0xbcdd75e9	-0.027033763
178	0x3d202d2b	0.039105576
179	0xbc7cb641	-0.015424312
180	0xbdde53c6	-0.10855822
181	0xbd2beb77	-0.041972604
182	0xbdad343b	-0.08457228
183	0xbdccb447	-0.09995323
184	0xbd63c883	-0.055611145
185	0xbd982d0e	-0.074304685
186	0xbd96cc48	-0.07363182
187	0xbd3fe70c	-0.046851203
188	0xbd4a29a6	-0.049356125
189	0x3df7cef3	0.12100019
190	0x3dba1841	0.09086657
191	0x3dc98523	0.09839847
192	0x3dbda294	0.09259525
193	0x3e0835f6	0.13301834
194	0x3da1dab2	0.07903041
195	0x3e02b6ef	0.12765096
196	0x3e033e2a	0.12816682
197	0x3e10a822	0.14126638
198	0x3c3dde2a	0.011588613
199	0xbcf0231e	-0.02931362
200	0xbd12f20f	-0.035875376
201	0x3bea7f34	0.007156277
202	0xbd66e850	-0.056373894
203	0xbd44e233	-0.048067283
204	0x3c82fe9a	0.015990544
205	0xbd3762a7	-0.044771817
206	0xbd0a3c48	-0.033748895
207	0xbd864684	-0.065564185
208	0x3c907a98	0.017636582
209	0xbd25f8d5	-0.040520508
210	0x3b91bde0	0.0044476837
211	0x3d27951e	0.040913694
212	0x3cfe8040	0.031067014
213	0xbdc5a123	-0.09649875
214	0xbc2719e5	-0.010199045
215	0xbd9d71da	-0.07687731
216	0xbdd9bc1a	-0.10631581
217	0xbd30e84e	-0.043190293
218	0xbd68897d	-0.056771744
219	0xbe0567ee	-0.13027927
220	0xbdb63a99	-0.08897895
221	0xbda831d3	-0.08212628
222	0xbe0df688	-0.13863575
223	0xbda82cf3	-0.082116984
224	0xbdbf2561	-0.09333301
225	0xbd705eb7	-0.058684077
226	0xbd48e468	-0.04904595
227	0xbd9b0cd5	-0.07570807
228	0xbd9177d0	-0.071029305
229	0xbd90668b	-0.070508085
230	0xbda0d0e1	-0.078523405
231	0xbdb7cd54	-0.0897471
232	0xbdc6d2ea	-0.097081974
233	0xbdfbef5c	-0.123015136
234	0xbac54620	-0.0015050806
235	0x3d3e8957	0.046517696
236	0x3b66a9f4	0.0035196515
237	0xba46be45	-0.0007581453
238	0x3da4f973	0.08055391
239	0x3c2c1290	0.0105024725
240	0xbbaa7da3	-0.0052029653
241	0x3d226066	0.039642714
242	0xbbd3a30d	-0.006458646
243	0xbc3a2a8e	-0.011362685
244	0x3b99db75	0.004695351
245	0xbb1a7584	-0.002356858
246	0x3d088b30	0.033335865
247	0x3d8a1c84	0.0674372
248	0x3d2373fc	0.039905533
249	0x3d4db0ab	0.05021731
250	0x3dd53699	0.10410804
251	0x3d87e252	0.06634964
252	0xbd19ab49	-0.037516866
253	0xbda0aa47	-0.07844978
254	0xbce07355	-0.027398745
255	0xbd8f7bbc	-0.07006022

dec2.0.bias f4 [24]
0	0x378efce8	1.7045488e-05
1	0x358c6f60	1.0463227e-06
2	0x34d7ea92	4.0217543e-07
3	0xb59e0e66	-1.1776108e-06
4	0x377fd37c	1.52484245e-05
5	0x36ed0d65	7.0647097e-06
6	0x357adace	9.345066e-07
7	0x367821f6	3.6974648e-06
8	0xb6e93322	-6.9498938e-06
9	0x37026c5d	7.773834e-06
10	0x34c43c65	3.6551788e-07
11	0xb6da7c27	-6.5113595e-06
12	0x36efeaf6	7.150108e-06
13	0x369b8ef1	4.6360005e-06
14	0xb2df332c	-2.5983887e-08
15	0xb537a057	-6.840614e-07
16	0xb6b89107	-5.5005107e-06
17	0xb6728458	-3.6137844e-06
18	0x366bbe27	3.5128412e-06
19	0x369c74cb	4.662759e-06
20	0x364a8f80	3.0183874e-06
21	0xb6e1937a	-6.722691e-06
22	0x370558d9	7.948104e-06
23	0x351429c0	5.519505e-07

dec2.1.weight f4 [24]
0	0x3f6b4333	0.9189941
1	0x3f762f4f	0.9616594
2	0x3f501d50	0.8129473
3	0x3f3f5efd	0.74754316
4	0x3f7f7707	0.99790996
5	0x3f6a5e86	0.9155048
6	0x3f51fe0b	0.82028264
7	0x3f76a474	0.96344686
8	0x3f4b7ccf	0.7948732
9	0x3f28f79e	0.66002834
10	0x3f6e8b4d	0.93181306
11	0x3f5614f5	0.8362573
12	0x3f5f0978	0.87123823
13	0x3f4d7e0a	0.80270445
14	0x3f1ebac0	0.6200371
15	0x3f3d35dd	0.73910314
16	0x3f7ad456	0.9798025
17	0x3f4e959f	0.80697054
18	0x3f774139	0.96583897
19	0x3f65d8bb	0.8978383
20	0x3f606ae1	0.87663084
21	0x3f7c0db7	0.9845843
22	0x3f8b4ba1	1.0882455
23	0x3f5b5014	0.85669065

dec2.1.bias f4 [24]
0	0x3d9590c0	0.073029995
1	0xbc026135	-0.007957746
2	0x3d7503dc	0.059818134
3	0xbe2a26e3	-0.16616397
4	0x3ca53df6	0.020171147
5	0x3b7d85ce	0.003868449
6	0xbe19ebea	-0.150314
7	0x3cf27e97	0.029601378
8	0xbd566ae8	-0.052348047
9	0x3c1ba9e1	0.0095009515
10	0xbe1f229d	-0.15540548
11	0x3d03d51c	0.03218566
12	0xbe641bcf	-0.22276233
13	0xbd064745	-0.03278281
14	0x3e8357db	0.25652966
15	0xbda8dcb1	-0.082452185
16	0xbe18e822	-0.14932302
17	0xbd57e3f2	-0.05270762
18	0xbda30327	-0.07959586
19	0x3d2a1ca2	0.041531213
20	0x3db53c90	0.08849442
21	0xbd9e7548	-0.077372134
22	0xbe343ed5	-0.17602094
23	0xbdebdcbb	-0.1151671

dec2.1.running_mean f4 [24]
0	0xbefb63b1	-0.49099496
1	0xbe780ede	-0.24224421
2	0xba86fc2b	-0.0010298541
3	0x3e2a596b	0.16635673
4	0xbf1fd0e8	-0.6242814
5	0xbdbf445c	-0.093392104
6	0x3e6fbc69	0.23411717
7	0xbe85c278	-0.2612493
8	0x3e12c8a0	0.14334345
9	0xbd6bbfe0	-0.057556033
10	0x3d166d8c	0.036725566
11	0x3e6e51d6	0.23273405
12	0xbe44ebbc	-0.1923055
13	0x3e13d9e2	0.14438584
14	0xbe630573	-0.22170047
15	0x3e9ea04c	0.30981672
16	0x3ea1080e	0.31451458
17	0x3d7c0ccb	0.061535638
18	0xbc892547	-0.016741408
19	0xbe3682f3	-0.1782339
20	0x3e51b47b	0.20479004
21	0xbe2eea79	-0.17081632
22	0xbe7c2871	-0.24624802
23	0x3e9eb090	0.30994081

dec2.1.running_var f4 [24]
0	0x3f46b085	0.776131
1	0x3ef60d2b	0.4805692
2	0x3e8821fa	0.26588422
3	0x3e7fac3b	0.24968044
4	0x3f5a4ac4	0.85270333
5	0x3ea20c9b	0.31650242
6	0x3e921565	0.28531948
7	0x3f5ef1f0	0.8708792
8	0x3f4ef543	0.8084299
9	0x3e234727	0.15945111
10	0x3f4022eb	0.7505328
11	0x3f1cb553	0.6121418
12	0x3ee93e9c	0.4555558
13	0x3f38e3fa	0.72222865
14	0x3e19bce3	0.15013461
15	0x3de27fa1	0.110594995
16	0x3ef1e6d9	0.47246435
17	0x3e8ec0cc	0.27881467
18	0x3f1e6e82	0.6188737
19	0x3e9914a3	0.29898557
20	0x3f678d81	0.9045029
21	0x3f68fa60	0.9100704
22	0x3eb77d1b	0.35837635
23	0x3edf97c2	0.4367047

dec3.0.weight f4 [48, 16, 3, 3]
0	0xbd790126	-0.06079211
1	0xbd825dca	-0.06365545
2	0xbd09fbdb	-0.033687454
3	0xbde8aa41	-0.11360598
4	0xbddf2855	-0.108963646
5	0xbd49fc58	-0.04931292
6	0xbd746ae1	-0.05967224
7	0xbde0b232	-0.10971488
8	0xbd3586f5	-0.04431816
9	0xbe3e0534	-0.18556672
10	0xbe041d93	-0.12901907
11	0xbe083983	-0.13303189
12	0xbe44949b	-0.19197313
13	0xbe6c8d59	-0.23100795
14	0xbe1810e9	-0.148502
15	0xbe1be4cb	-0.15223996
16	0xbe0b6399	-0.13612212
17	0xbe2149e2	-0.1575084
18	0xbd619eae	-0.05508297
19	0xbd762784	-0.06009628
20	0xbd8b359e	-0.06797336
21	0xbe066f90	-0.13128495
22	0xbe3cfdd2	-0.184562
23	0xbdd4a9ed	-0.10383973
24	0xbdb37ef2	-0.08764447
25	0xbdf36186	-0.118838355
26	0xbd818411	-0.06324018
27	0xbcf7c906	-0.030247223
28	0xbd438d06	-0.047741912
29	0xbd1bc3a9	-0.038028393
30	0xbc82d4cd	-0.015970612
31	0xbc685790	-0.014181033
32	0xbd83391e	-0.064073786
33	0x3c5c8466	0.013459301
34	0xbd13f77b	-0.036124688
35	0xbaf6ea98	-0.0018838225
36	0xbd1e3d95	-0.038632948
37	0xbdb0f38d	-0.086402036
38	0xbd5ce3a0	-0.053928018
39	0xbd481e6b	-0.048857134
40	0xbaa4f2ad	-0.001258453
41	0xbda08bce	-0.07839166
42	0xbd48084f	-0.04883605
43	0xbd714a05	-0.05890848
44	0xbd7eeea8	-0.06223932
45	0xbc9ff184	-0.019524343
46	0x3d2fe60e	0.042944007
47	0xbd5976e2	-0.05309189
48	0x3d98af2e	0.07455288
49	0xbcda879f	-0.026675997
50	0xbce82e7f	-0.028342484
51	0xbc9ea2ea	-0.019364793
52	0x3cb6abb6	0.022298675
53	0xbd63843e	-0.055546038
54	0xbc41617f	-0.01180303
55	0xbd392469	-0.04520074
56	0xbcfc3fc4	-0.030792125
57	0xbdbbbbfc	-0.091667145
58	0xbe22191d	-0.15829892
59	0xbdb06107	-0.086122565
60	0xbd249802	-0.04018403
61	0xbdabca1e	-0.0838816
62	0xbd2bdcb3	-0.041958522
63	0x3cb302d1	0.021851929
64	0xbd138b79	-0.036021683
65	0xbce10518	-0.02746825
66	0x3ccf384d	0.025295401
67	0x3d231e57	0.039823856
68	0xbc19324d	-0.009350372
69	0x3a50beba	0.0007962991
70	0x3d35bd00	0.044369698
71	0xbcab8472	-0.020937178
72	0x3cb0a933	0.021565055
73	0x3d094d99	0.03352127
74	0x3b75ddb9	0.003751619
75	0x3dbd0a84	0.09230521
76	0x3e138fff	0.14410399
77	0x3d73fa7d	0.059565056
78	0x3d8e43e5	0.069465436
79	0x3e046370	0.12928557
80	0x3d9a702e	0.07540928
81	0xbb56262b	-0.0032676558
82	0xbcd0391f	-0.025417862
83	0xbd319ac6	-0.043360494
84	0x3d1b81b6	0.0379655
85	0xbc11fb20	-0.0089099705
86	0xbd1c44dc	-0.038151607
87	0xbc752062	-0.014961334
88	0xbb82b799	-0.0039891717
89	0xbb69474e	-0.003559548
90	0xbd691717	-0.056906786
91	0xbe0d9d66	-0.13829574
92	0xbcefcd0d	-0.02927258
93	0xbd20edd9	-0.03928933
94	0xbe032e7b	-0.128107
95	0xbd5184f6	-0.051152192
96	0xbd2f48f9	-0.0427942
97	0xbd62d874	-0.055382207
98	0xbbb5e304	-0.005550744
99	0x3e080077	0.13281427
100	0x3c8acb02	0.016942505
101	0x3c47aba2	0.012186917
102	0x3e86c7d0	0.2632432
103	0xbba660be	-0.0050774505
104	0x3d8ce873	0.06880274
105	0x3e7e1dbe	0.24816033
106	0x3bc22494	0.0059247706
107	0x3d9d732a	0.076879814
108	0xbd50af1e	-0.050948255
109	0xbd3d4dac	-0.04621665
110	0xbc3c935a	-0.011509741
111	0xbd810f23	-0.06301715
112	0xbdba2a1a	-0.090900615
113	0xbd508664	-0.050909415
114	0xbd977d13	-0.07396903
115	0xbda8920c	-0.08230981
116	0xbcaaf1f5	-0.020867327
117	0xba07e06f	-0.00051832845
118	0x3bed80a9	0.0072480035
119	0xbdcda516	-0.10041253
120	0x3d3b0cc3	0.045666467
121	0x3c60b2ba	0.013714487
122	0xbc8043c6	-0.015657317
123	0x3d79c51b	0.06097899
124	0x3d8a54ee	0.0675448
125	0xbd4b3ce0	-0.0496186
126	0x3d929e50	0.07159102
127	0x3cb6220b	0.02223303
128	0xbd404e7d	-0.046949852
129	0xbd31d3ec	-0.043414995
130	0x3ddd41e0	0.1080358
131	0xbcfa55c3	-0.030558472
132	0x3dedad5a	0.1160533
133	0x3a048681	0.0005055443
134	0x3afe27be	0.0019390506
135	0xba0d0620	-0.0005379636
136	0x3dbbcdf6	0.09170143
137	0xbba02fad	-0.004888496
138	0x3e6785ef	0.22609685
139	0x3e5ad403	0.21369939
140	0x3c88b684	0.016688593
141	0x3cb074de	0.021540102
142	0x3e301f79	0.17199506
143	0xbd0c5e8a	-0.034269847
144	0x3ce00d0c	0.027349971
145	0xbc7fb6f5	-0.015607585
146	0xbd074dd0	-0.033033192
147	0xbaa43e63	-0.00125308
148	0xbdab2811	-0.083572514
149	0xbd8f04c5	-0.069833316
150	0xbaf81869	-0.0018928173
151	0xbd5ed908	-0.054406196
152	0xbd9e7d40	-0.07738733
153	0xbdde44cf	-0.10852968
154	0xbd81bfed	-0.06335435
155	0xbdb281c6	-0.087161586
156	0xbd8f3d6a	-0.06994136
157	0xbe21c46b	-0.15797584
158	0xbdecbbc3	-0.1155925
159	0xbdb9cecf	-0.09072649
160	0xbe00c8dc	-0.12576622
161	0xbdab69ac	-0.08369765
162	0xbd1b3ff8	-0.037902802
163	0xbc80b28f	-0.015710143
164	0xbd590800	-0.052986145
165	0xb93bd81e	-0.0001791422
166	0xbe12d486	-0.14338884
167	0xbdc7d4d7	-0.09757393
168	0x3bb4c7d8	0.0055169873
169	0xbd4906f1	-0.049078885
170	0xbce27275	-0.027642468
171	0xbc268ade	-0.010164944
172	0xbcfc1de9	-0.030775981
173	0xbd3a60ff	-0.04550266
174	0x3d38c8ca	0.045113362
175	0x3d7d70de	0.061875217
176	0x3c9f964c	0.019480847
177	0xbbf313ab	-0.007418116
178	0x3ce1a959	0.027546572
179	0xbbea15a0	-0.007143691
180	0x3c41b81d	0.011823681
181	0x3c94fc10	0.018186599
182	0xbc3a827a	-0.011383647
183	0x3c41214a	0.011787722
184	0x3c9d27e5	0.019184062
185	0x3c6c800a	0.014434824
186	0x3d35afea	0.044357218
187	0x3d0a2774	0.03372903
188	0xbd284a01	-0.0410862
189	0x3c444ee7	0.011981702
190	0xbc8c7acb	-0.017148396
191	0xbc43a1aa	-0.011940399
192	0x3c6be101	0.014396907
193	0x3b7a6f20	0.0038213208
194	0x3d9a4907	0.0753346
195	0xbd036e51	-0.032087628
196	0xbd3b150b	-0.045674365
197	0x3b1ade97	0.002363121
198	0xbc68f3b0	-0.014218256
199	0xbd6d1ed4	-0.057890728
200	0xbd00cafe	-0.03144359
201	0xbd4c8611	-0.049932543
202	0xbe15a68c	-0.14614314
203	0xbda8f158	-0.08249158
204	0xbd9d965d	-0.07694695
205	0xbdfbcab5	-0.12294523
206	0xbdaf560a	-0.085613325
207	0x3ccb19f5	0.02479265
208	0xbcbe3878	-0.023220286
209	0xbc2c8f4c	-0.0105322115
210	0x3d2733f4	0.04082103
211	0x3c1762da	0.009239877
212	0x3c088100	0.008331537
213	0x3c881691	0.016612323
214	0x3e04ff4e	0.12988016
215	0xbb994f1f	-0.0046786214
216	0xbdb3b15e	-0.087740645
217	0xbd0ef505	-0.034901638
218	0xbcd207df	-0.025638519
219	0xbd218729	-0.03943554
220	0x3dbaa63f	0.0911374
221	0x3cf7fbb9	0.030271398
222	0x3d773dcf	0.06036168
223	0x3e10dc17	0.14146458
224	0x3df5ee34	0.12008324
225	0x3cba3187	0.022728695
226	0xbd54454c	-0.0518239
227	0xb9811a5b	-0.00024624434
228	0x3cd909df	0.026493965
229	0x3d45866d	0.0482239
230	0x3c909153	0.017647421
231	0x3d1f63b2	0.038913436
232	0xbc0f6288	-0.008751519
233	0x3c27a5b4	0.010232378
234	0x39bb60bc	0.00035739492
235	0xbd7ef6d0	-0.062247097
236	0x3c65792a	0.014005939
237	0x3cd1ac02	0.025594715
238	0xbc5d510a	-0.013508091
239	0xbb2f5dd0	-0.0026758797
240	0x3d8d516c	0.069002956
241	0x3c269654	0.010167677
242	0x3dc127b7	0.09431403
243	0x3d00a7eb	0.03141014
244	0x3dc062b1	0.09393824
245	0x3e58b54e	0.21162912
246	0x3da9c8e2	0.082902685
247	0xbc67f481	-0.014157415
248	0x3e99f35b	0.30068478
249	0x3e052613	0.13002805
250	0x3d9be8d8	0.07612771
251	0x3e97b822	0.2963267
252	0x3cae11ed	0.021248782
253	0xbd340750	-0.043952286
254	0xbcb1f4f0	-0.02172324
255	0xbd2438ae	-0.040093116

dec3.0.bias f4 [16]
0	0xb727068e	-9.955502e-06
1	0xb78bbf4e	-1.6659174e-05
2	0xb6b1d480	-5.2997493e-06
3	0x36d7df98	6.433529e-06
4	0x35ed78f1	1.7693075e-06
5	0x36c4663a	5.853156e-06
6	0x36642dec	3.4001378e-06
7	0x35f4bf48	1.8235087e-06
8	0x3581e9b0	9.679261e-07
9	0xb664bf24	-3.4085906e-06
10	0x3404e233	1.2375749e-07
11	0x3714b49b	8.863538e-06
12	0x35a5954a	1.2336907e-06
13	0xb51a240a	-5.7421914e-07
14	0x3705b192	7.968762e-06
15	0x3693660e	4.392822e-06

dec3.1.weight f4 [16]
0	0x3fa666d7	1.3000134
1	0x3fa9d508	1.3268137
2	0x3fa7fa90	1.3123341
3	0x3fb0a222	1.3799479
4	0x3fa9fb3e	1.3279798
5	0x3f9f557c	1.2447963
6	0x3fbd2797	1.4777707
7	0x3f9ce59e	1.2257574
8	0x3fa46c86	1.2845619
9	0x3fa9ed47	1.3275536
10	0x3fa45739	1.2839118
11	0x3fa4b934	1.286902
12	0x3f9e3b92	1.236193
13	0x3f96cb2e	1.1780756
14	0x3f9da107	1.2314767
15	0x3fa3ab9e	1.2786748

dec3.1.bias f4 [16]
0	0x3e9cb03e	0.30603212
1	0x3eb5cb60	0.35506725
2	0x3ea06b24	0.31331742
3	0x3eade6ae	0.33965057
4	0x3e84c553	0.25931796
5	0x3e9685f2	0.29399067
6	0x3f613fd4	0.8798802
7	0x3e8dd8a6	0.27704352
8	0x3d435565	0.04768886
9	0x3e9ee9a8	0.3103764
10	0x3e35717b	0.1771907
11	0x3e8e1282	0.27748495
12	0x3e5ae211	0.213753
13	0x3e910945	0.28327385
14	0x3e7ed010	0.24884057
15	0x3e896f96	0.26842946

dec3.1.running_mean f4 [16]
0	0x3e6ec84a	0.23318592
1	0xbebe521c	-0.3717202
2	0x3e256cc2	0.16154769
3	0x3dd14223	0.10217693
4	0x3d7ca3b9	0.061679576
5	0x3e0328d1	0.12808539
6	0xbf0f3515	-0.5594037
7	0x3e257092	0.16156223
8	0x3e058513	0.13039045
9	0x3e521066	0.20514068
10	0x3e26e118	0.16296804
11	0x3f124d60	0.57149315
12	0x3e385fa7	0.18005238
13	0x3d5721db	0.05252252
14	0x3e5ac885	0.21365555
15	0x3f187dec	0.5956714

dec3.1.running_var f4 [16]
0	0x3fa60571	1.297041
1	0x3fb19cd7	1.3875989
2	0x3fb8431c	1.439548
3	0x3f4e91f2	0.80691445
4	0x3f5028ea	0.8131243
5	0x3f8d8343	1.1055683
6	0x3ee0a13c	0.43873012
7	0x40066e2d	2.1004746
8	0x3ed5c9e3	0.4175559
9	0x3f872c6b	1.056043
10	0x3f564803	0.8370363
11	0x3fbebc60	1.4901237
12	0x3f9c76a3	1.2223705
13	0x3f22831c	0.6348131
14	0x3fd3340b	1.6500257
15	0x3f525c6e	0.82172287

final.weight f4 [3, 32, 1, 1]
0	0xbe360f0f	-0.17779182
1	0xbe4f1004	-0.20220953
2	0xbe348521	-0.1762891
3	0x3ea8d651	0.3297601
4	0x3f0cc1b5	0.54983073
5	0x3ef4e4ff	0.4783096
6	0x3cbb4afd	0.022862906
7	0x3ef1e4ca	0.47244865
8	0xbe8ee7e8	-0.27911305
9	0x3ece62c0	0.40309715
10	0xbec5491e	-0.38532346
11	0x3e8f3678	0.27971244
12	0xbe9b038d	-0.30276147
13	0x3ea4115f	0.32044503
14	0x3eded619	0.4352272
15	0x3e946427	0.2898266
16	0xbd848d6c	-0.064722866
17	0xbe139fd8	-0.14416444
18	0x3bb80b0c	0.0056165513
19	0xbdcda72a	-0.1004165
20	0x3e4d4fa9	0.20049919
21	0xbd54c423	-0.051944863
22	0x3c93e7f3	0.018054938
23	0x3e5e6b76	0.2172068
24	0x3e61f888	0.22067463
25	0xbdc698f5	-0.09697143
26	0xbcdc55a1	-0.0268963
27	0xbc3ec687	-0.011644012
28	0x3c06ec19	0.008235001
29	0x3e0ace2b	0.1355521
30	0x3dcdb09b	0.100434504
31	0xbe011310	-0.12604928
32	0xbef77664	-0.48332512
33	0xbf3f3c03	-0.74700946
34	0xbf1296c9	-0.5726133
35	0xba1e5602	-0.0006040038
36	0xbe47527c	-0.19465059
37	0xbea70768	-0.32622838
38	0xbf53204d	-0.8247116
39	0xbe3b758f	-0.18306564
40	0x3f29d8e5	0.6634658
41	0x3d8baa2f	0.06819569
42	0xbec5070c	-0.3848194
43	0x3e14803a	0.1450204
44	0xbf011291	-0.50418955
45	0xbf0cf22a	-0.55057013
46	0x3d974f0e	0.07388125
47	0x3e272443	0.16322426
48	0xbe9a6918	-0.30158305
49	0xbe309a68	-0.17246401
50	0xbe8646f5	-0.2622601
51	0xbdc6e869	-0.097122975
52	0xbec0197c	-0.37519443
53	0xbd8cc66a	-0.06873782
54	0xbeece03a	-0.4626482
55	0xbec1b1e9	-0.37831047
56	0xbe81b347	-0.2533209
57	0x3d032e46	0.03202655
58	0xbe23e744	-0.1600619
59	0xbe4f0f1d	-0.20220609
60	0xbedcf2b0	-0.43153906
61	0xbcd2674d	-0.025684023
62	0x3db6682e	0.089065894
63	0x3c3d42b6	0.01155155
64	0x3eb49fb3	0.3527809
65	0x3e8e3d00	0.27780914
66	0x3ecc88e1	0.3994818
67	0xbf0eedfe	-0.558319
68	0xbeff2b10	-0.49837542
69	0xbeb6be14	-0.35691893
70	0x3d603f1c	0.054747686
71	0xbf01b18d	-0.50661546
72	0xbed548a5	-0.41656986
73	0xbee400d7	-0.4453189
74	0x3ee2d026	0.4429943
75	0xbee84898	-0.45367885
76	0x3e5c121b	0.21491282
77	0xbe41f089	-0.18939413
78	0xbe883c39	-0.26608446
79	0xbecbfe6f	-0.39842555
80	0x3dcbace5	0.099450864
81	0x3d7f367b	0.062307816
82	0x3e3882df	0.18018673
83	0xbe0650ca	-0.13116756
84	0x3e12cb28	0.1433531
85	0xbd851d10	-0.06499684
86	0x3e916b62	0.2840224
87	0x3dad9c97	0.08477133
88	0x3e4ea011	0.20178248
89	0xbcc1a2d9	-0.023637222
90	0xbb3247d9	-0.002720347
91	0xbe0940f3	-0.13403682
92	0x3def2ebe	0.11678837
93	0xbd83577a	-0.06413169
94	0x3d821e7a	0.06353469
95	0x3e32b9f2	0.17453745

final.bias f4 [3]
0	0x3e574e2a	0.21025911
1	0xbe487be6	-0.19578514
2	0xbdf0eac6	-0.117635295

onnx::Conv_235 f4 [16, 3, 3, 3]
0	0x3e334f7d	0.17510791
1	0xbdacca35	-0.084370054
2	0x3e2f7314	0.17133743
3	0x3d0151d9	0.031572197
4	0xbe04dda5	-0.12975176
5	0x3e8639c3	0.26215944
6	0xbe018af0	-0.12650657
7	0x3dcf4c85	0.10122017
8	0x3ea8b5a3	0.32951078
9	0xbe83b528	-0.2572415
10	0xbe77482d	-0.24148627
11	0x3d95ddb8	0.0731768
12	0xbe7edf20	-0.24889803
13	0xbeb4b58b	-0.35294756
14	0x3d12b7ef	0.035819944
15	0xbec6506e	-0.38733238
16	0xbe524a1f	-0.20536087
17	0xbc9dd40b	-0.019266149
18	0x3dfda0b7	0.123841695
19	0x3e070545	0.13185604
20	0xbe00c56c	-0.1257531
21	0xbcf551d5	-0.029946247
22	0x3e0c0373	0.13673191
23	0x3daf6b59	0.08565397
24	0x3dc11efb	0.09429737
25	0xbc7c8226	-0.015411889
26	0x3e1df5cf	0.154258
27	0xbb9e1e32	-0.004825377
28	0x3e337352	0.1752446
29	0x3e126164	0.14294964
30	0x3e69185e	0.22763202
31	0x3c9941d3	0.018708145
32	0x3e10e630	0.1415031
33	0x3e074570	0.13210082
34	0xbd0c353f	-0.034230467
35	0xbe0c0b95	-0.13676293
36	0x3d61bab9	0.055109713
37	0xbd57aa95	-0.052652914
38	0xbe8d19ca	-0.27558738
39	0xbe6ec922	-0.23318914
40	0xbe228281	-0.15870096
41	0x3ce7f825	0.028316567
42	0x3d0d9014	0.03456123
43	0xbd73b7b9	-0.059501383
44	0xbc8b5664	-0.017008968
45	0xbdf7802b	-0.12084993
46	0x3e3e8dc3	0.18608765
47	0x3cfd11fb	0.030892363
48	0xbd8a7127	-0.06759863
49	0x3e40e08f	0.18835662
50	0x3db9d361	0.090735205
51	0xbcc9da42	-0.024640206
52	0x3e24d9ad	0.16098662
53	0x3e5790b9	0.21051301
54	0x3e83499a	0.2564209
55	0xbd98d198	-0.07461852
56	0xbe6f6baf	-0.23380922
57	0x3e9734fa	0.29532605
58	0xbe43dce1	-0.19127227
59	0xbe266c8d	-0.16252346
60	0x3d98a7a9	0.07453854
61	0xbe87d989	-0.26533154
62	0x3e2f92ba	0.17145815
63	0xbdd8d654	-0.10587755
64	0xbd5205cd	-0.051275063
65	0xbe3d1304	-0.18464285
66	0xbeb5d9b7	-0.35517666
67	0xbe1da5e2	-0.1539531
68	0xbe8d0e2d	-0.27549878
69	0xbd9975dc	-0.07493183
70	0x3b8ec41b	0.0043568737
71	0xbe9027c6	-0.28155345
72	0xbd208637	-0.039190497
73	0xbd587889	-0.052849326
74	0x3ebcd7f1	0.368835
75	0x3e80865e	0.25102514
76	0x3e8bb429	0.2728589
77	0x3eb92769	0.3616288
78	0xbe679a1b	-0.2261738
79	0x3e3887ff	0.18020628
80	0x3e4ead8c	0.2018339
81	0x3e21881f	0.15774582
82	0x3dd70c4f	0.105003946
83	0x3d56dcb2	0.052456565
84	0x3e49a80c	0.19693011
85	0x3df71721	0.12064958
86	0x3e647e87	0.22313891
87	0x3c868113	0.01641897
88	0x3e0f8bf8	0.14018238
89	0x3d76e27d	0.06027459
90	0xbd21c68e	-0.039495997
91	0xbdc8426c	-0.09778294
92	0xbe345638	-0.17611015
93	0xbe18876b	-0.14895408
94	0xbe1e79b6	-0.15476117
95	0xbc125a39	-0.008932644
96	0x3d85b134	0.065279394
97	0xbb91709a	-0.004438472
98	0x3d86a66f	0.065747134
99	0x3d5b17e1	0.05348957
100	0xbdb12398	-0.08649367
101	0xbd532acb	-0.051554482
102	0xbd750652	-0.05982048
103	0x3d842535	0.06452409
104	0x3e2bf2a8	0.16791785
105	0x3d19dfa0	0.03756678
106	0xbd961ef8	-0.073301256
107	0x3ce2d58e	0.027689721
108	0x3dcf54a9	0.101235695
109	0xbdd251ec	-0.102695316
110	0xbce202b8	-0.027589187
111	0xbc72eae7	-0.014826513
112	0xbd48925c	-0.048967704
113	0xbd87dc53	-0.066338204
114	0x3dd07361	0.10178257
115	0x3d8144a3	0.063119195
116	0xbca3bf78	-0.01998876
117	0x3d0bfbc9	0.034175668
118	0xba4b692c	-0.0007759507
119	0x3e13df9e	0.14440772
120	0xb9bdb47f	-0.0003618337
121	0x3e3b3599	0.18282165
122	0xbda7fd9b	-0.08202668
123	0x3dd87315	0.10568825
124	0xbcb7f5de	-0.022456106
125	0xbcb2f9d8	-0.02184765
126	0xbdaa5715	-0.08317391
127	0xbe1664e3	-0.14686923
128	0xbe576f86	-0.21038637
129	0xbe12d2ef	-0.14338277
130	0xbe64d04f	-0.22345088
131	0xbe24b08f	-0.16082977
132	0xbd503007	-0.050827052
133	0xbe28b857	-0.1647657
134	0xbdd88327	-0.1057189
135	0x3d43db6b	0.047816675
136	0x3da3b41c	0.079933375
137	0xbe15dd45	-0.14635189
138	0xbb40461a	-0.0029338659
139	0x3d5e2e5e	0.054243438
140	0xbd3bd820	-0.04586041
141	0x3cd865e5	0.026415775
142	0x3d9a1771	0.07524002
143	0xbd683bed	-0.056697775
144	0xbe05a666	-0.13051757
145	0xbad03302	-0.0015884342
146	0x3d11642d	0.035495926
147	0xbd658d32	-0.056042857
148	0xbd65f9e6	-0.056146525
149	0xbd218c44	-0.03944041
150	0xbe1c0d36	-0.15239415
151	0xbdecc4fc	-0.11561009
152	0xbd76ce45	-0.060255308
153	0x3e53259b	0.20619814
154	0x3e23856a	0.15968862
155	0x3dbd5c6f	0.09246146
156	0x3e535290	0.20636964
157	0x3e5076c7	0.2035781
158	0x3e374b24	0.17899758
159	0x3c893ccc	0.016752623
160	0xbce0354a	-0.02736916
161	0x3dadcf37	0.08486789
162	0xbe1b2137	-0.15149389
163	0xbd3a3098	-0.0454565
164	0xbcbb56e0	-0.022868574
165	0x3bc6d762	0.006068156
166	0x3da77487	0.08176523
167	0xbe1c64ae	-0.15272781
168	0x3d57088a	0.052498378
169	0xbe9f7160	-0.31141186
170	0xbe68b3f4	-0.22724897
171	0x3dc326d0	0.09528887
172	0x3d8a5cdf	0.06755995
173	0xbe5ffc37	-0.21873556
174	0xbbd7a9b4	-0.0065815095
175	0xbe826e96	-0.25474995
176	0xbe4a87e6	-0.19778404
177	0xbe299c2e	-0.16563484
178	0xbc9d0631	-0.019167991
179	0xbe525884	-0.20541579
180	0x3e4f88d5	0.20267041
181	0xbcc1d974	-0.02366326
182	0xbd023bfd	-0.03179549
183	0x3dd575e1	0.10422874
184	0x3e3793e6	0.17927513
185	0xbe032601	-0.12807466
186	0x3e8354bb	0.25650582
187	0x3e53b56c	0.20674676
188	0xbdf2ad66	-0.118494794
189	0xbd83e5f8	-0.064403474
190	0xbe553e8d	-0.20824642
191	0xbe499189	-0.19684424
192	0xbe58ad07	-0.21159755
193	0xbe4488ca	-0.19192806
194	0xbe1f43eb	-0.15553252
195	0xbe02c0a8	-0.12768805
196	0xbc16038b	-0.009156118
197	0xbe358c75	-0.17729361
198	0x3dec9b5f	0.11553072
199	0x3e1fc7de	0.15603587
200	0x3e186881	0.14883615
201	0x3e0de1d7	0.13855682
202	0xbd843eb9	-0.06457276
203	0x3d6fd801	0.058555607
204	0xbe0b990f	-0.13632606
205	0x3d82145f	0.06351542
206	0xbb96e322	-0.004604713
207	0xbdc8e5b4	-0.098094374
208	0xbd1467c7	-0.036231782
209	0x3d95dd26	0.07317571
210	0x3d90a21c	0.0706217
211	0xbd0b2f62	-0.033980735
212	0xbd5c2543	-0.053746473
213	0xbd8fbbaa	-0.07018216
214	0x3c40a896	0.011758944
215	0xbdb964a7	-0.09052401
216	0x3e83823d	0.256853
217	0x3e82422b	0.25441107
218	0x3e6d3eeb	0.23168533
219	0xbdcbe8a9	-0.09956486
220	0x3e497adc	0.19675773
221	0x3e3c9ead	0.18419905
222	0x3e6295cb	0.22127454
223	0xbd7fa1db	-0.062410217
224	0x3ec705a6	0.38871497
225	0xbe325560	-0.1741538
226	0xbe990b7e	-0.2989158
227	0xbea0fc2e	-0.31442398
228	0xbe2cc68e	-0.16872618
229	0x3bf470a8	0.0074597187
230	0xbd3fbac6	-0.04680898
231	0xbea56c0a	-0.3230899
232	0xbe95db82	-0.29269034
233	0xbba21a38	-0.004946973
234	0x3e738955	0.23782857
235	0xbd9af0f1	-0.07565487
236	0xbdc85649	-0.097820826
237	0xbe012242	-0.12610725
238	0x3c18b038	0.009319358
239	0xbe3be5ae	-0.18349335
240	0x3e7f2951	0.24918105
241	0xbd9251d5	-0.071445145
242	0x3e256de4	0.16155201
243	0x3de14934	0.110002905
244	0xbd99f530	-0.07517469
245	0xbd10ac49	-0.035320554
246	0xbda259e6	-0.07927303
247	0xbdf818f0	-0.121141315
248	0xbdd836f1	-0.10557354
249	0x3d9d2c37	0.07674449
250	0xbd650cb4	-0.055920318
251	0x3d91b80b	0.071151815
252	0x3df6f1df	0.12057852
253	0x3e43e341	0.19129659
254	0x3e0627ce	0.13101122
255	0x3e26775c	0.1625647

onnx::Conv_236 f4 [16]
0	0x3f1e1708	0.6175389
1	0x3f239507	0.6389927
2	0x3ef94842	0.4868794
3	0x3f0e0f5e	0.554922
4	0xbe35bdac	-0.17748135
5	0x3eb4b0d9	0.35291174
6	0xbdc58ec0	-0.09646368
7	0xbf238da8	-0.63888025
8	0x3f96361b	1.1735262
9	0xbe0fd2f4	-0.14045316
10	0xbe5d37e6	-0.21603355
11	0x3e0e5bae	0.1390216
12	0x3f65638c	0.8960502
13	0xbddd8414	-0.108162075
14	0x3f222bf0	0.63348293
15	0x3d2e3753	0.04253323

onnx::Conv_238 f4 [64, 16, 1, 1]
0	0x3e10cece	0.1414139
1	0xbe1830b7	-0.14862333
2	0x3e562e6c	0.20916146
3	0xbda5cd8b	-0.08095845
4	0x3cedda32	0.029034708
5	0xbddf1e24	-0.10894421
6	0x3e23cee8	0.15996897
7	0x3cf9d3a4	0.030496426
8	0xbcdf4913	-0.027256524
9	0xbd18134e	-0.037127785
10	0x3dd469b6	0.10371725
11	0xbd4b8f5c	-0.049697265
12	0x3e03dbd4	0.12876827
13	0x3e08e61f	0.13369034
14	0xbdee3697	-0.11631506
15	0xbe10d216	-0.14142641
16	0x3bad7a54	0.0052941237
17	0x3d48df39	0.049041007
18	0x3c9ccf08	0.019141689
19	0x3c92f636	0.017939668
20	0xbd06ea37	-0.03293821
21	0x3d3bf5cd	0.04588871
22	0x3d146e09	0.03623775
23	0xbe20dad3	-0.15708475
24	0x3e11fb75	0.1425608
25	0xbdf424a9	-0.11921055
26	0xbd2e08b0	-0.042488754
27	0xbcf7495d	-0.03018635
28	0x3d23bacf	0.039973076
29	0xbe111977	-0.1416987
30	0x3d229199	0.039689634
31	0xbd0de760	-0.034644485
32	0x3f074abf	0.5284843
33	0x3c85d4a3	0.016336745
34	0x3adfeb12	0.0017083606
35	0x3e3b3ee7	0.18285714
36	0xbe3b95fc	-0.18318933
37	0x3dd5faa6	0.10448198
38	0xbea06afc	-0.31331623
39	0xbe01941f	-0.1265416
40	0x3e342209	0.17591108
41	0xbd83ad9a	-0.06429596
42	0x3e81c415	0.2534491
43	0x3e98da36	0.29853982
44	0xbe8cafc0	-0.27477837
45	0xbe89adcb	-0.26890406
46	0xbd5d8365	-0.054080386
47	0xbc7fcef9	-0.015613311
48	0xbd3a211f	-0.045441743
49	0xbd0b9565	-0.03407802
50	0xbd751705	-0.059836406
51	0xbc8ddf41	-0.01731837
52	0x3d47e39b	0.048801046
53	0xbd815379	-0.06314749
54	0x3b204114	0.0024452852
55	0xbc8a979f	-0.016918002
56	0xbd7cc62b	-0.061712425
57	0xbdab36fd	-0.083600976
58	0xbde20c58	-0.11037511
59	0xbc0ec292	-0.008713381
60	0x3d9be011	0.07611097
61	0xbda43bf6	-0.08019249
62	0xbd8924dd	-0.06696484
63	0xbdd59a5c	-0.10429832
64	0xbc0d0453	-0.008606988
65	0x3dd2945f	0.10282206
66	0x3db7ef64	0.08981207
67	0x3d863d3d	0.06554649
68	0xbde1252c	-0.10993418
69	0x3cd91a1f	0.026501713
70	0x3dec3e61	0.11535335
71	0xbdebb0a6	-0.115083024
72	0x3d7979dd	0.060907234
73	0x3cce00a2	0.025146786
74	0xbcc97a8a	-0.024594564
75	0xbbf124a8	-0.007359106
76	0x3bb4c706	0.0055168895
77	0xbd815745	-0.063154735
78	0x3d40b1fd	0.047044743
79	0x3cf26dc7	0.029593362
80	0x3dccc85a	0.099991515
81	0x3da7e373	0.08197679
82	0xbd1e39ed	-0.03862946
83	0xbd937f0f	-0.07201969
84	0xbde54ff7	-0.11196893
85	0x3e2f600c	0.17126483
86	0xbd11be2f	-0.035581764
87	0x3da35382	0.07974912
88	0x3c7bc631	0.015367077
89	0xbc5ed19c	-0.013599779
90	0x3d71b64a	0.059011735
91	0xbd237cfb	-0.039914113
92	0xbd458f38	-0.048232287
93	0xbd8c1786	-0.06840424
94	0x3d2bacca	0.04191283
95	0x3e0b1bb8	0.13584793
96	0x3c357258	0.011074625
97	0xbc776f90	-0.015102282
98	0x3e18e0f7	0.14929567
99	0xbc513946	-0.012770003
100	0x3e0c25c3	0.1368628
101	0x3dfd321a	0.12363072
102	0xbd3e783c	-0.046501383
103	0x3e0097ae	0.12557861
104	0xbdeb9a53	-0.115040444
105	0xbdef2b38	-0.11678165
106	0x3d8ced82	0.068812385
107	0x3de4ca24	0.11171368
108	0xbe0efe35	-0.1396416
109	0xbe217db8	-0.15770614
110	0xbe165725	-0.1468168
111	0xbd010c22	-0.03150571
112	0xbbdbfa65	-0.006713199
113	0x3ceac8db	0.028660228
114	0xbb9b90b8	-0.0047474764
115	0xbd6c2ce3	-0.057659995
116	0xbdac1641	-0.08402682
117	0xbca7dcf4	-0.0204911
118	0x3d28daa8	0.04122415
119	0xbdd587c6	-0.10426287
120	0x3ceb2272	0.028702948
121	0xbe0b5f6e	-0.13610622
122	0xbdcf78b3	-0.101304434
123	0x3bd6fa77	0.0065606195
124	0xbca7a258	-0.020463154
125	0xbddd76cd	-0.10813675
126	0xbd8b0faa	-0.06790097
127	0xbe21648b	-0.1576101
128	0x3d7f8e8b	0.0623918
129	0x3d36f1a9	0.04466406
130	0xbc866c05	-0.01640893
131	0x3df67f63	0.12036016
132	0x3d8cfa0d	0.06883631
133	0x3dde5588	0.108561575
134	0xbc37bd98	-0.011214636
135	0x3c688104	0.014190916
136	0x3d84fa6d	0.064930774
137	0x3d1d3d62	0.038388617
138	0x3da0d939	0.07853932
139	0x3d358d86	0.04432442
140	0x3de18265	0.11011199
141	0x3dc39840	0.09550524
142	0x3dbe8cba	0.09304185
143	0xbccb4d09	-0.024817007
144	0x3d2b7f05	0.041869182
145	0xbe631744	-0.22176844
146	0x3e1da381	0.15394403
147	0x3cbd536f	0.023111073
148	0xbdd36e0b	-0.103237234
149	0x3e11a05b	0.14221327
150	0xbd3fb007	-0.046798732
151	0x3ece42f8	0.40285468
152	0xbe42feaf	-0.19042467
153	0x3d59fd9e	0.053220384
154	0xbe216b88	-0.15763676
155	0x3be5ac55	0.007009069
156	0x3dc22bf4	0.0948104
157	0x3ba66164	0.005077528
158	0xbe2f5e19	-0.17125739
159	0x3e2f1986	0.1709958
160	0xbc15fb2b	-0.009154121
161	0x3b8e4264	0.0043414105
162	0x3cfeae59	0.031088995
163	0xbcea9a09	-0.028637903
164	0xbd13fc09	-0.03612903
165	0xbd6fec04	-0.05857469
166	0xbc371077	-0.011173359
167	0xbd0bd300	-0.034136772
168	0x3ad9c8c5	0.001661562
169	0x39a0f635	0.00030701017
170	0x3d789821	0.060691956
171	0xbce709a6	-0.028202843
172	0x3d9dbb46	0.07701735
173	0x3df1b70d	0.11802492
174	0x3dc0e8f9	0.09419436
175	0x3d85be0c	0.06530389
176	0x3d8d65bc	0.0690417
177	0xbda78d55	-0.08181254
178	0xbde810f7	-0.11331361
179	0x3c20c414	0.009812374
180	0x3e21c339	0.15797128
181	0x3d2038b4	0.039116576
182	0x3d8138f9	0.06309695
183	0x3d695643	0.05696703
184	0xbda3200b	-0.07965096
185	0xbc97a44c	-0.01851096
186	0xbd390816	-0.045173727
187	0x3d93dbf4	0.07219687
188	0xbd40d675	-0.047079522
189	0xbd9625b1	-0.07331408
190	0xbd957c81	-0.07299138
191	0x3ce55143	0.02799285
192	0x3a5cee74	0.0008427866
193	0x3cc8e6ab	0.024524054
194	0x3e33aa5a	0.17545453
195	0x3d974362	0.07385899
196	0xbe0b79a3	-0.1362062
197	0xbb8277af	-0.0039815526
198	0x3d623676	0.05522772
199	0x3d8e8e05	0.06960682
200	0xbdc420f1	-0.095765956
201	0xbcd37b66	-0.025815677
202	0x3c22f349	0.009945699
203	0x3df72fb3	0.12069645
204	0xbdc7d1ec	-0.09756836
205	0xbe041cb3	-0.12901573
206	0xbd2c2ffc	-0.04203795
207	0xbd99180a	-0.07475288
208	0x3e118911	0.14212443
209	0x3d349659	0.044088695
210	0xbd0b49eb	-0.03400604
211	0x3e1da52a	0.15395036
212	0x3e0c542c	0.13703984
213	0x3e46b3c5	0.19404514
214	0x3daed156	0.085360214
215	0x3dc4c5f0	0.09608066
216	0x3e66256f	0.22475217
217	0xbd8b6fcf	-0.06808435
218	0xba842dfe	-0.0010084508
219	0x3da96b41	0.0827241
220	0xbe351318	-0.17683065
221	0x3cb0cb36	0.021581274
222	0x3ddb40be	0.10705708
223	0xbbc24fd7	-0.005929928
224	0xbdbfb0c1	-0.09359885
225	0x3d54c2eb	0.0519437
226	0x3da68d08	0.08132368
227	0x3dc84dc8	0.097804606
228	0x3dad14e3	0.084512495
229	0x3d4efcc4	0.050534025
230	0xbd4d760e	-0.050161414
231	0xbda1d8c3	-0.07902672
232	0x3e38c998	0.18045652
233	0xbe17e0c3	-0.14831834
234	0xbd6d2866	-0.057899855
235	0xbddc3aa8	-0.10753375
236	0x3e0181d8	0.12647188
237	0x3d13248f	0.035923537
238	0x3da05749	0.07829148
239	0x3c0ec2ea	0.008713463
240	0x3d841de0	0.06451011
241	0xbd2615dd	-0.040548194
242	0xbd3a1e07	-0.045438793
243	0x3cb1115b	0.021614721
244	0x3e417746	0.18893155
245	0xbce54e1c	-0.027991347
246	0xbdb7e857	-0.08979862
247	0x3e98983a	0.2980364
248	0x3e0245b3	0.127219
249	0x3da216a4	0.079144746
250	0xbcdbde36	-0.026839357
251	0xbde8840b	-0.1135331
252	0x3cec36ee	0.028834786
253	0xbc70f6cc	-0.014707278
254	0xbdc1107a	-0.09426971
255	0xbcb93420	-0.022607863

onnx::Conv_239 f4 [64]
0	0xbef43bef	-0.47701976
1	0x3cdb5cc2	0.026777629
2	0x3e1c5e7c	0.15270418
3	0x3ee93996	0.45551747
4	0x3d14f2b2	0.036364265
5	0x3b752f60	0.003741227
6	0x3d9c59e9	0.076343365
7	0x3ee00ae3	0.43758306
8	0xbeb1d4a5	-0.34732547
9	0xbe26016c	-0.1621148
10	0xbde4a3ba	-0.11164041
11	0xbc1e9512	-0.009679096
12	0x3e4bbdda	0.19896641
13	0xbef81d27	-0.4845974
14	0xbe05d422	-0.13069203
15	0xbea7f51e	-0.32804197
16	0x3dc04d28	0.093897164
17	0xbeb90956	-0.36139935
18	0x3e7cdcd0	0.24693608
19	0x3d936f3b	0.0719895
20	0x3d562672	0.052282758
21	0x3d4d9c6e	0.05019801
22	0x3e4cb48d	0.1999075
23	0xbf664022	-0.8994161
24	0x3e9dc268	0.30812383
25	0xbd3f8710	-0.046759665
26	0x3f030a01	0.5118714
27	0x3d2a1f12	0.041533537
28	0xbe1b629c	-0.15174335
29	0xbe1a86e1	-0.15090515
30	0x3ec715ec	0.38883913
31	0xbedb84fc	-0.42874897
32	0xbda8a103	-0.082338355
33	0x3e0a3641	0.13497259
34	0xbd6ba6e9	-0.057532225
35	0xbea64917	-0.32477638
36	0x3e65fecf	0.22460483
37	0xbde625a4	-0.11237648
38	0x3e7fc15c	0.24976104
39	0xbe4a1503	-0.19734578
40	0xbe95a5d2	-0.29228073
41	0x3de823f9	0.11334986
42	0xbd3607a7	-0.04444089
43	0x3e17458b	0.14772622
44	0xbb376df0	-0.0027989112
45	0xbdf962c4	-0.12177041
46	0xbe29ea01	-0.16593172
47	0x3e81cac3	0.25350007
48	0x3e8626be	0.26201433
49	0x3e0b4ce8	0.13603556
50	0x3dd6c3c2	0.104865566
51	0x3e3335d2	0.17501
52	0xbcd7e304	-0.026353367
53	0xbeab2a1d	-0.33430567
54	0x3e82be27	0.255357
55	0xbe0938a8	-0.13400519
56	0xbd87efd0	-0.066375375
57	0x3dcb7316	0.0993406
58	0x3d7c8e5f	0.061659213
59	0x3ee42185	0.44556823
60	0xbea50b81	-0.3223534
61	0x3e78a328	0.24280989
62	0x3e826d31	0.2547393
63	0x3ee0422c	0.43800485
