module/vision/Segmentation/data/segmentation_model.onnx (onnx, 331445 bytes, 46 tensors)

dec1.0.weight f4 [64, 32, 3, 3]
0	0xbbe5a61f	-0.0070083286
1	0xbb6d64a7	-0.0036223324
2	0xbc379228	-0.01120428
3	0x3c19ba62	0.009382816
4	0x3c1daa51	0.009623126
5	0x3b4febcc	0.003172624
6	0x3a87707f	0.0010333209
7	0xbb2d1e99	-0.0026415943
8	0xbbdbc82e	-0.006707213
9	0xb99aeb2e	-0.00029548391
10	0xbba20981	-0.0049449806
11	0x3c425aba	0.011862451
12	0xbc248e1d	-0.010043648
13	0xbba2c77b	-0.0049676276
14	0xbb51c35b	-0.003200731
15	0xbbe9edea	-0.0071389573
16	0xbc26ae3b	-0.010173376
17	0x3b8535b3	0.0040652393
18	0x3bffd19d	0.0078069703
19	0x3bca9698	0.006182503
20	0x3c73883b	0.014864023
21	0xbb81f1f0	-0.003965609
22	0xbaf17c6d	-0.0018423923
23	0x3bf34436	0.007423903
24	0xbc7d527e	-0.015461562
25	0xbc6317f3	-0.01386069
26	0xbb8ade34	-0.0042379145
27	0x3b4a74ec	0.0030892445
28	0x3bd8d927	0.0066176835
29	0x3c1709f5	0.009218683
30	0xbc162420	-0.009163886
31	0x39c890a9	0.00038254753
32	0x3b48ef53	0.0030660226
33	0xbb74cf2e	-0.0037354934
34	0xbc20045e	-0.009766666
35	0x3b99e711	0.0046967347
36	0x3b476512	0.0030425233
37	0x3ba99817	0.005175601
38	0xba9c517d	-0.0011926141
39	0x3c4f156c	0.012639385
40	0x3cc6f347	0.024285926
41	0x3bbea413	0.005817899
42	0x3c126a01	0.008936406
43	0x3c1a66cf	0.009423926
44	0x3ba3f1e9	0.005003203
45	0xb8971311	-7.2037925e-05
46	0x3bbe7fc7	0.005813572
47	0x38b5e7b4	8.6739106e-05
48	0xb8ccaa29	-9.759173e-05
49	0x3b0bad89	0.0021313152
50	0x3ad3258a	0.001610921
51	0x39bef45f	0.00036421695
52	0x3bcfdfe5	0.006343829
53	0x39f209d0	0.00046165148
54	0x3b64b7be	0.0034899558
55	0xbb6feda3	-0.0036610148
56	0x3b7f3361	0.0038940536
57	0x3aa3c331	0.0012494085
58	0xbb8a5aaa	-0.004222234
59	0x3b313ba1	0.0027043598
60	0x3a239202	0.00062397134
61	0xba86989f	-0.0010268873
62	0x3a5455dc	0.0008099952
63	0x3b819f90	0.003955789
64	0x3bf7136e	0.007540158
65	0x3c02e309	0.0079887
66	0x3bea306d	0.007146886
67	0x3c1d37e1	0.009595842
68	0x3c74df07	0.014945752
69	0xbb7ea0dc	-0.0038853204
70	0xba5f405a	-0.0008516364
71	0x3b36cef3	0.0027894347
72	0x3b37cebb	0.0028046805
73	0x3bcbbab0	0.0062173232
74	0x3aab1141	0.0013051407
75	0x3a97bdcc	0.001157695
76	0xbbcf2709	-0.006321792
77	0xbbb113af	-0.005403958
78	0x3b8cfdff	0.0043027396
79	0x3bef7b79	0.0073084203
80	0x3b0cec43	0.0021503128
81	0x3c69c9ea	0.0142693315
82	0x3b8fdde9	0.0043904674
83	0x3c5f6ce2	0.0136367995
84	0x3c597387	0.013272173
85	0x3c4cd3d9	0.01250168
86	0x3bd7092b	0.006562372
87	0x3cb53dc7	0.022124184
88	0x3c8c318f	0.017113475
89	0x3cb7d296	0.022439282
90	0xbc68b568	-0.014203407
91	0x3b2edb7b	0.0026681114
92	0xbc9c012b	-0.019043526
93	0x3b90a67d	0.004414378
94	0xbaa46dda	-0.0012544945
95	0xbb8924f4	-0.0041853134
96	0x3c3a2ee9	0.011363723
97	0x3b8958c0	0.004191488
98	0x3bfa80ea	0.0076447623
99	0xbb5a63d3	-0.003332366
100	0x3bfdc8bf	0.007744878
101	0x3b358396	0.002769684
102	0x3b7a47ba	0.0038189725
103	0x3bedab9a	0.0072531225
104	0x3bbcd97a	0.00576323
105	0xbbeee878	-0.007290896
106	0x3af68cd4	0.0018810281
107	0xbb091ea7	-0.0020922811
108	0x3b12a5d8	0.0022376683
109	0x3c135c40	0.008994162
110	0x3bc2decf	0.005946971
111	0xbad451c6	-0.0016198687
112	0x3c078587	0.0082715815
113	0x3bd268e0	0.0064211935
114	0xba4e3c71	-0.0007867283
115	0x3bf270bb	0.0073986924
116	0x3b55e496	0.0032637469
117	0x3a0986dd	0.00052462314
118	0xbb8a70f6	-0.004224892
119	0x3a3373e1	0.00068455754
120	0x3b7520d9	0.0037403612
121	0x3c31e81b	0.010858561
122	0xbc11e75a	-0.008905256
123	0x3c093680	0.00837481
124	0x3b0c1a02	0.0021377807
125	0x3b36db54	0.0027901726
126	0x3bc69edd	0.0060614184
127	0x3b2a5d12	0.0025995416
128	0x3c4bcfdd	0.012439695
129	0x3b38f0c4	0.002821968
130	0x3bafb6dd	0.005362375
131	0x3acf26f4	0.0015804456
132	0xbb998e8b	-0.004686182
133	0xbc2c3043	-0.010509553
134	0x3b74901d	0.0037317344
135	0xbb4e0187	-0.0031434016
136	0xbba8e2f6	-0.005154009
137	0x3b93dd35	0.004512454
138	0xbc45bed6	-0.012069425
139	0xbc40b0e8	-0.011760928
140	0xbb8e87f8	-0.004349705
141	0xbc3cbac2	-0.011519136
142	0xbb4e40af	-0.003147166
143	0x3aa55f86	0.0012616969
144	0x3c12c73d	0.008958635
145	0x3bc8c57b	0.006127057
146	0x3c65a5aa	0.014016548
147	0x3b684f5c	0.0035447692
148	0xbb02112e	-0.0019846666
149	0x3b892374	0.0041851345
150	0x3a9b2e3b	0.0011839339
151	0xbc1bc9d3	-0.009508568
152	0x3c297557	0.010342917
153	0x3b963a29	0.00458457
154	0xbc3e413a	-0.011612231
155	0xbb998afa	-0.0046857568
156	0x3bb3b507	0.0054842266
157	0xbb876554	-0.0041319523
158	0xbbd3ac8a	-0.0064597772
159	0x3bd9b090	0.0066433623
160	0xbc08efbc	-0.008357938
161	0xbb4cc93a	-0.003124787
162	0x3c057067	0.008144475
163	0x3bf85757	0.007578771
164	0x3c262b31	0.010142134
165	0xbb616ad2	-0.0034395945
166	0x3cbf8afc	0.023381703
167	0x3aa941fb	0.001291334
168	0x3bfbe510	0.0076872185
169	0x3c08288c	0.008310448
170	0x3be365f6	0.006939645
171	0xbb56d57f	-0.0032781062
172	0xba3d7efd	-0.00072287006
173	0xbbd983b4	-0.0066380147
174	0xbcb2e7f4	-0.02183912
175	0xbc01328c	-0.0078855865
176	0xbcbe8749	-0.023257868
177	0xbac0b231	-0.0014701543
178	0xb9bf9355	-0.0003654013
179	0xbbdf5a32	-0.006816172
180	0x3c7d061a	0.015443349
181	0x3c9d842c	0.019228064
182	0x3c9e2ddb	0.019308975
183	0xbc05e1df	-0.008171528
184	0xb95d631f	-0.00021113128
185	0x3b53d5cd	0.003232348
186	0xbc5c6212	-0.013451116
187	0xbc0efdd3	-0.008727509
188	0xbbb8dff8	-0.0056419335
189	0x3aedd2c2	0.0018144476
190	0xbb7c08c7	-0.003845738
191	0x3c117023	0.008876833
192	0xbc823a2c	-0.01589688
193	0xbb80d97e	-0.003932177
194	0xbb2bacf1	-0.002619561
195	0xba9eb087	-0.0012107053
196	0xbc113f87	-0.008865244
197	0x3bba03ea	0.005676736
198	0x3c6672cd	0.014065457
199	0x3c243436	0.010022214
200	0x3cd90ff6	0.026496869
201	0xbb6a4706	-0.00357479
202	0xba75deba	-0.0009379197
203	0x3b0e0106	0.002166809
204	0xbc337403	-0.010952952
205	0xbc05d0d8	-0.008167468
206	0x3b809297	0.003923725
207	0x3b91d5e9	0.004450549
208	0x3c6a15f5	0.0142874615
209	0x3b706e97	0.003668701
210	0xba66a837	-0.00087988697
211	0x3c10d022	0.008838685
212	0xb8eaaad4	-0.00011189809
213	0xbbb94551	-0.005654015
214	0x3be2c9ae	0.0069210147
215	0xbbc273c7	-0.005934212
216	0xbc3415b6	-0.010991504
217	0xbb054b8c	-0.002033922
218	0xbc2db5e7	-0.010602451
219	0xbb536df8	-0.0032261591
220	0xbc851272	-0.016244147
221	0xbbfbea72	-0.00768786
222	0xbb188a7d	-0.0023275905
223	0x3c947564	0.018122382
224	0x3aa53666	0.0012604713
225	0xb94fb5d1	-0.0001980879
226	0x3b9f9155	0.00486962
227	0xbbdd133e	-0.0067466786
228	0x3c36f717	0.011167309
229	0x3b499aea	0.0030762502
230	0x3b3ec959	0.0029111712
231	0x3bc6d706	0.0060681133
232	0x3c164cf6	0.009173622
233	0xbba47d73	-0.0050198375
234	0xbbf66b07	-0.007520083
235	0x3991d7a9	0.00027817235
236	0xbc018fa6	-0.007907784
237	0xbb3feac6	-0.0029284223
238	0x3ad1fa49	0.0016020025
239	0xbb950763	-0.0045479997
240	0xb99847d4	-0.00029045215
241	0x3bf295c6	0.0074031083
242	0x3b4551b4	0.0030108513
243	0x3bbebdfb	0.0058209873
244	0x3b3f665a	0.0029205293
245	0x3ba642d7	0.005073886
246	0x3bed5b8b	0.007243579
247	0x3b98aeb5	0.0046594986
248	0x3b7fbd16	0.0039022616
249	0xbb674b74	-0.0035292776
250	0xbb9bb458	-0.0047517233
251	0xbb2d1aaf	-0.002641361
252	0xbc6faee1	-0.014629097
253	0xbb2039b5	-0.0024448459
254	0xbc72fe51	-0.014831142
255	0xbc34e94a	-0.011041949

dec1.0.bias f4 [32]
0	0xb6257c6d	-2.4659341e-06
1	0xb728929c	-1.00477155e-05
2	0x37d290e3	2.5101419e-05
3	0x37929db9	1.7478002e-05
4	0x362c50f8	2.5677127e-06
5	0xb5970b29	-1.1253625e-06
6	0x3696428f	4.478097e-06
7	0xb72f9b61	-1.046699e-05
8	0xb758d689	-1.2924554e-05
9	0xb7050070	-7.92752e-06
10	0xb81b0e87	-3.696841e-05
11	0x371cbcd5	9.3422905e-06
12	0xb6f45467	-7.2815924e-06
13	0x36410505	2.8762163e-06
14	0xb755566f	-1.2715914e-05
15	0x37f0a4a4	2.8686896e-05
16	0xb5e79496	-1.7254085e-06
17	0xb812a552	-3.496308e-05
18	0x37b939e7	2.2080681e-05
19	0x36d22812	6.2631525e-06
20	0xb63ebe61	-2.8423021e-06
21	0xb48c9c17	-2.6190602e-07
22	0xb8150650	-3.5530247e-05
23	0x370792a1	8.080767e-06
24	0xb80903a5	-3.266674e-05
25	0x36a57d15	4.9319447e-06
26	0xb6298742	-2.5261693e-06
27	0x37c74d49	2.3758637e-05
28	0x372b24ff	1.0201008e-05
29	0xb49f16a1	-2.9632523e-07
30	0xb7bfa80a	-2.2847224e-05
31	0x36572e83	3.206457e-06

dec1.1.weight f4 [32]
0	0x3f84ccf6	1.0375049
1	0x3f41c2d5	0.75687915
2	0x3f4e439d	0.8057192
3	0x3f0d7dca	0.55270064
4	0x3f082f2b	0.5319697
5	0x3e8f0718	0.279351
6	0x3eadf06b	0.33972487
7	0x3f3488d7	0.705213
8	0x3f259db0	0.6469374
9	0x3ef647a1	0.48101524
10	0x3f457a3f	0.7713966
11	0x3f1ae2fa	0.6050259
12	0x3f110708	0.56651354
13	0x3ef8790d	0.48529854
14	0x3f0e728b	0.5564353
15	0x3f4f7595	0.8103879
16	0x3ef4901c	0.47766197
17	0x3f46c770	0.7764807
18	0x3f4ae2b6	0.79252183
19	0x3ee24326	0.44191855
20	0x3f464b07	0.7745823
21	0x3f4a83fd	0.7910765
22	0x3f47f444	0.78107095
23	0x3f05b30b	0.5222632
24	0x3f479a25	0.7796958
25	0x3f0f206f	0.55908865
26	0x3ea5c62b	0.32377753
27	0x3f15c21c	0.5849931
28	0x3f1e54de	0.6184825
29	0x3eac1973	0.33613166
30	0x3f51f46b	0.8201358
31	0x3f013b20	0.5048084

dec1.1.bias f4 [32]
0	0xbdc868ab	-0.09785589
1	0xbe167539	-0.14693154
2	0x3bf4bc61	0.0074687456
3	0x3e097add	0.13425775
4	0x3e7819c9	0.24228586
5	0xbe416ac7	-0.18888389
6	0xbc8c84c8	-0.017153159
7	0xbd93c1ba	-0.07214685
8	0xbd84fcf1	-0.06493557
9	0xbd9b7908	-0.07591444
10	0x3d78c3c5	0.060733575
11	0x3d28c25f	0.04120099
12	0xbdcf171a	-0.10111828
13	0xbe066562	-0.13124612
14	0xbd431db6	-0.047635756
15	0xbd97c35a	-0.07410307
16	0xbe70b33e	-0.23505875
17	0xbca5f74f	-0.020259527
18	0xbcd505ae	-0.026003685
19	0x3bc646f6	0.0060509397
20	0xbd08ecbf	-0.033428904
21	0xbddfc444	-0.109261066
22	0xbd0d5046	-0.034500383
23	0xbeafe8c9	-0.34357288
24	0x3cc2f575	0.023798684
25	0x3e394a8c	0.18094844
26	0xbcba5aad	-0.022748316
27	0xbdf246e9	-0.11829931
28	0xbdd968b3	-0.10615673
29	0x3ca14e01	0.019690515
30	0xbda57787	-0.08079439
31	0x3dda49b5	0.1065859

dec1.1.running_mean f4 [32]
0	0xbde3247e	-0.11090945
1	0xbd8223e6	-0.06354503
2	0xbd111c22	-0.03542722
3	0xbd291c30	-0.041286647
4	0x3cf2a31b	0.02961879
5	0xbbd0a1c5	-0.0063669407
6	0xbd3420ad	-0.043976475
7	0x3c946491	0.01811436
8	0xbc2652cf	-0.010151579
9	0x3aa65a65	0.0012691735
10	0x3d9f6877	0.07783597
11	0x3d89fcc9	0.06737668
12	0xbd63bb2c	-0.055598423
13	0x3d2cc8d9	0.04218373
14	0xbc1890ad	-0.009311837
15	0xbe376c55	-0.17912419
16	0xbd022b27	-0.031779435
17	0xbceea35f	-0.029130636
18	0xbe368b1c	-0.17826504
19	0xbc4311de	-0.011906115
20	0xbdf7c9ab	-0.12099012
21	0xbe30ef18	-0.17278707
22	0xbdcb1b3d	-0.09917305
23	0xbdbc9224	-0.092075616
24	0xbc01294e	-0.007883383
25	0x3d14e0a7	0.036347058
26	0x3d3907ee	0.045173578
27	0xbe1efaff	-0.15525435
28	0xbe35a772	-0.17739657
29	0x3d12f47f	0.0358777
30	0xbba83af4	-0.005133981
31	0xbcea2b36	-0.028585058

dec1.1.running_var f4 [32]
0	0x3e4d258f	0.20033859
1	0x3d4cd602	0.05000878
2	0x3e37f5c5	0.17964847
3	0x3d4a2e57	0.0493606
4	0x3d0720dc	0.03299032
5	0x3cba8356	0.022767704
6	0x3d189445	0.037250776
7	0x3e010738	0.1260041
8	0x3dc248ce	0.09486543
9	0x3cda3cb2	0.02664027
10	0x3e08ef4d	0.13372536
11	0x3de6e191	0.11273492
12	0x3dd0d745	0.101973094
13	0x3ca8c239	0.020600425
14	0x3dca6a9a	0.09883614
15	0x3dbf9f08	0.09356505
16	0x3d76167a	0.06008003
17	0x3db542a6	0.08850603
18	0x3e238f0a	0.15972534
19	0x3cc94abc	0.024571769
20	0x3e2ea943	0.17056756
21	0x3d63b4b8	0.05559227
22	0x3e1be72e	0.15224907
23	0x3d85dff1	0.06536854
24	0x3dacb53f	0.084330074
25	0x3d4efa34	0.05053158
26	0x3c3f374b	0.011670898
27	0x3d81b273	0.063328646
28	0x3d5e2798	0.05423698
29	0x3c22b1b6	0.009930065
30	0x3e64e7bd	0.22354026
31	0x3c6e3c35	0.014540722

dec2.0.weight f4 [64, 24, 3, 3]
0	0xbbb7cad0	-0.005608894
1	0xbcb97139	-0.022636997
2	0xbcd064cd	-0.02543869
3	0xbcbe91fd	-0.023262972
4	0x3da382c9	0.0798393
5	0xbc9f1df2	-0.019423459
6	0xbba16953	-0.0049258857
7	0x3d4aa5ca	0.049474515
8	0x3d0b14ee	0.033955507
9	0xbde33335	-0.11093751
10	0xbd9c1cb5	-0.07622663
11	0xbe0791f4	-0.1323927
12	0xbdc2a1d5	-0.09503523
13	0xbd80d6c7	-0.062909655
14	0xbde6645f	-0.11249613
15	0xbe012459	-0.12611522
16	0xbdbbc99e	-0.09169315
17	0xbe254352	-0.16138962
18	0xbcd21aab	-0.025647482
19	0xbcd2a54b	-0.025713583
20	0xbca3d774	-0.020000197
21	0x3ad35aac	0.0016125045
22	0xbcd06cfc	-0.025442593
23	0x3d1d822f	0.03845423
24	0xbc94ebea	-0.018178899
25	0xbd3505bf	-0.044194933
26	0xb930d7b8	-0.0001686503
27	0xbd9c1110	-0.07620442
28	0xbd0c2412	-0.034214087
29	0xbdcb882a	-0.099380806
30	0xbaad6237	-0.0013228123
31	0x3dbb8129	0.09155495
32	0xbc248059	-0.010040366
33	0xbe0d21c3	-0.1378241
34	0x3da65d79	0.08123297
35	0xbe24e437	-0.16102682
36	0xbc6d7acb	-0.014494608
37	0xbe1c15c1	-0.15242673
38	0xbe22008a	-0.15820518
39	0x3d8f9193	0.07010188
40	0xbd652b74	-0.055949643
41	0xbe11df8e	-0.14245436
42	0x3da95f4b	0.08270129
43	0x3d5fdaa4	0.05465187
44	0xbcff2039	-0.031143295
45	0xbaf61926	-0.0018775805
46	0x3c6c1ec2	0.01441163
47	0xbbe42597	-0.006962489
48	0xbce9e1a3	-0.028549975
49	0xbcfe5639	-0.031046974
50	0xbc882570	-0.016619414
51	0x3961e532	0.00021543054
52	0x3d1e4870	0.0386433
53	0x3c41bb20	0.011824399
54	0xbcacc65a	-0.021090675
55	0xbbdc20c6	-0.006717774
56	0x3c1ffb00	0.009764433
57	0x3c73e9d5	0.014887293
58	0x3d1a3018	0.037643522
59	0x3d783f1a	0.060607053
60	0x3d582de7	0.05277815
61	0x3d0c8b89	0.03431276
62	0x3d9705ba	0.07374139
63	0x3beadfd0	0.007167794
64	0x3d627d0a	0.055295028
65	0x3c02bb4c	0.007979225
66	0x3d51ea16	0.051248632
67	0x3e7ce00f	0.24694847
68	0x3d1b9f20	0.03799355
69	0x3d8b4038	0.06799358
70	0x3dd400cc	0.103517145
71	0x3de930ed	0.11386285
72	0x3c68ae68	0.014201738
73	0x3dad56d1	0.084638245
74	0x3d7032e4	0.058642283
75	0x3bf5d711	0.0075024446
76	0x3dbe1248	0.092808306
77	0x3d1b5093	0.03791864
78	0xbcf35c3c	-0.029707067
79	0x3d148f60	0.036269546
80	0x3d90e0d5	0.07074133
81	0x3e144747	0.14480315
82	0x3e3bfc71	0.18358018
83	0x3dce3622	0.10068919
84	0x3e2d35fd	0.16915126
85	0x3e68c6fc	0.22732157
86	0x3e218042	0.15771583
87	0x3e17f2cf	0.14838718
88	0x3e6b26db	0.22964041
89	0x3e0bc15a	0.13647977
90	0xbd8c756b	-0.06858333
91	0xbce4d1e9	-0.027932124
92	0xbd971c31	-0.07378424
93	0xbe086465	-0.13319547
94	0x3bbfa1fe	0.0058481684
95	0xbe014c9c	-0.1262688
96	0xbdb06e58	-0.086147964
97	0xbcd8e056	-0.02647416
98	0xbdcf01f6	-0.10107796
99	0x3cde6c2d	0.027151192
100	0x3cf5fe55	0.030028502
101	0x3d0399af	0.032128986
102	0x3cec57f3	0.028850531
103	0x3d7c0bd7	0.06153473
104	0x3cf4b67b	0.02987217
105	0x3d504884	0.050850406
106	0x3d21e1fa	0.03952215
107	0x3d6e2451	0.058140103
108	0xbca3b427	-0.019983364
109	0x3ca5a0c6	0.020218264
110	0x3c35d7dc	0.011098828
111	0x3d323281	0.043505196
112	0x3d623b28	0.055232197
113	0x3daa6cce	0.08321534
114	0x3b6e3c42	0.0036351834
115	0x3cfd60be	0.03092992
116	0x3cffc4e8	0.031221822
117	0x3d14c772	0.03632302
118	0x3d25f9d6	0.040521465
119	0x3d448f0a	0.047987975
120	0x3b5fc3c4	0.0034143785
121	0x3d8ee60f	0.06977474
122	0xbc80c7bf	-0.015720246
123	0xbd63b9ff	-0.0555973
124	0x3bb53718	0.0055302493
125	0xbca72d12	-0.020407233
126	0x3ddcfd61	0.10790516
127	0x3d8603ab	0.06543668
128	0x3e3e58e3	0.18588595
129	0x3e3c7ed6	0.18407759
130	0x3e038419	0.1284336
131	0x3e9351d5	0.2877337
132	0x3dd50475	0.10401241
133	0x3cd1a4e7	0.025591327
134	0x3e40354b	0.1877033
135	0xbac05fe1	-0.0014677012
136	0xbd06d44e	-0.032917313
137	0xbda5680f	-0.08076488
138	0x3d4824d4	0.048863247
139	0xbc4190c7	-0.011814303
140	0xbd0628d7	-0.03275379
141	0x3db8dfb4	0.09027043
142	0x3d4f7523	0.05064882
143	0xbc336e4a	-0.010951588
144	0xbcf97bb8	-0.030454502
145	0x3dd8a28b	0.105778776
146	0x3c4e7492	0.012601035
147	0x3cfe6c14	0.031057395
148	0x3dec52d7	0.11539238
149	0x3d856e27	0.065151505
150	0xbc35ac07	-0.011088378
151	0x3dd0035b	0.1015689
152	0x3d191a72	0.037378736
153	0x3d070fbd	0.032973994
154	0x3d061153	0.032731365
155	0x3cab16ba	0.02088486
156	0x3d5f760e	0.054555945
157	0x3db7a1d9	0.08966417
158	0x3d875561	0.066080816
159	0x3c88ccc4	0.016699202
160	0x3d029601	0.031881336
161	0x3c483141	0.012218774
162	0xbe06d572	-0.1316736
163	0x3e00bcb2	0.12571982
164	0xbe1c18fc	-0.15243906
165	0x3e2b066f	0.16701673
166	0x3e8a8771	0.2705646
167	0x3e417e00	0.18895721
168	0xbdefb090	-0.117035985
169	0x3e8c7dde	0.2743978
170	0xbe056fad	-0.13030882
171	0x3d39a859	0.045326564
172	0x3d5f32fc	0.054491982
173	0x3d9ea6b8	0.07746643
174	0x3d4093c4	0.04701592
175	0x3d63a822	0.055580266
176	0x3d2bfab3	0.041987132
177	0xbce0b0b1	-0.027428003
178	0x3d75a06f	0.059967455
179	0x3d3a57f5	0.04549404
180	0xbd7adea1	-0.06124747
181	0xbde5866f	-0.11207282
182	0xbd88d0d2	-0.06680454
183	0xbd257215	-0.040392
184	0xbe02d2fa	-0.12775794
185	0xbd28bfe5	-0.04119863
186	0xbd3ad2fb	-0.045611363
187	0xbda377e5	-0.079818524
188	0xbd6bdbe8	-0.057582766
189	0x3cd947c2	0.026523475
190	0xbe2043b4	-0.15650827
191	0x3db9ce32	0.09072532
192	0x3c3d2fb4	0.011547018
193	0xbc2786d4	-0.010225017
194	0x3db6aa23	0.0891917
195	0x3de4407f	0.11145114
196	0xbe428337	-0.18995367
197	0x3e2144fd	0.15748973
198	0xbb5dbb08	-0.0033833403
199	0x3cc096d2	0.023509417
200	0xbb89f03d	-0.004209547
201	0x3da441f6	0.080203936
202	0x3d8dbf4b	0.06921252
203	0x3def8156	0.11694591
204	0xbb899df0	-0.004199736
205	0x3d781e1d	0.060575593
206	0xbbe0745d	-0.006849809
207	0xbd103f09	-0.035216365
208	0xbce14535	-0.02749882
209	0xbbf6e40d	-0.00753451
210	0xbe630ff0	-0.22174048
211	0xbcd07f79	-0.025451409
212	0xbe752600	-0.23940277
213	0x3cdae523	0.026720589
214	0xbceb87a2	-0.028751198
215	0x3d5ad44a	0.05342511
216	0xbdf99481	-0.12186528
217	0xbe43c410	-0.1911776
218	0xbe3f1ddd	-0.18663736
219	0xbddfe445	-0.10932211
220	0xbe24cbe6	-0.16093406
221	0xbde61a3f	-0.11235475
222	0xbd92d1f4	-0.07168952
223	0xbe03813f	-0.12842272
224	0xbe002dbe	-0.1251745
225	0xb9b84da0	-0.0003515305
226	0x3ba9c25c	0.00518064
227	0xbbcdebe8	-0.0062842257
228	0x3bb92452	0.0056500817
229	0x3cb871d0	0.022515208
230	0x3b830763	0.0039986833
231	0x3ba1964f	0.0049312483
232	0x3cb373d5	0.021905819
233	0x3c89c90c	0.0168195
234	0x3c6ed495	0.014577051
235	0x3d3e54d8	0.046467632
236	0x3bea6d5d	0.0071541504
237	0x3d70a257	0.05874857
238	0x3de136b0	0.10996759
239	0x3dbd6dab	0.09249433
240	0x3c51d1a3	0.012806329
241	0x3c537efd	0.012908694
242	0xbb8a1d75	-0.0042149373
243	0x3ddd6e8d	0.108121015
244	0x3e0d2ce5	0.13786657
245	0x3d580d04	0.052746788
246	0xbd582be4	-0.052776232
247	0x3e11f884	0.14254957
248	0xbd6232c9	-0.055224214
249	0x3dca9044	0.09890798
250	0x3e148f6f	0.1450784
251	0x3da1bbff	0.078971855
252	0xbd128765	-0.035773654
253	0x3ca79806	0.020458233
254	0x3c0bac8c	0.008525025
255	0xbd222db1	-0.039594356

dec2.0.bias f4 [24]
0	0x376e7d71	1.4215112e-05
1	0xb61fec67	-2.383045e-06
2	0x3783c2f5	1.57072e-05
3	0x37512b9a	1.24675225e-05
4	0x36a75614	4.9870087e-06
5	0xb2156127	-8.695031e-09
6	0x35d94ed7	1.6190705e-06
7	0x37024076	7.763612e-06
8	0x35afac05	1.308858e-06
9	0x36de4f23	6.6253283e-06
10	0x37227567	9.683287e-06
11	0xb5bfdf35	-1.4295571e-06
12	0xb5ed0c37	-1.7661431e-06
13	0xb69d7d15	-4.693526e-06
14	0xb72247c6	-9.6726635e-06
15	0xb5b1acad	-1.3237783e-06
16	0xb6d6c54b	-6.400665e-06
17	0x36ebdfcf	7.0296005e-06
18	0x34ddf011	4.133913e-07
19	0x37756a69	1.46279135e-05
20	0x368f039d	4.2621527e-06
21	0xb71fd80c	-9.527441e-06
22	0xb541067f	-7.1907556e-07
23	0xb76bb3f2	-1.4048988e-05

dec2.1.weight f4 [24]
0	0x3f3de0ae	0.7417096
1	0x3f510e9b	0.8166291
2	0x3f8438d7	1.0329846
3	0x3f4040eb	0.75099057
4	0x3f0552af	0.5207929
5	0x3eecdcc9	0.46262196
6	0x3f567ad8	0.83781195
7	0x3f4dd238	0.80398893
8	0x3f71ee56	0.94504297
9	0x3f861da2	1.0477793
10	0x3f435c82	0.7631303
11	0x3f17373f	0.59068674
12	0x3f349f6f	0.70555776
13	0x3f6f682c	0.9351833
14	0x3f41fbcb	0.7577483
15	0x3f22682b	0.634402
16	0x3f712fa6	0.9421333
17	0x3f4d4220	0.80179024
18	0x3f6fe03c	0.9370153
19	0x3f477119	0.7790695
20	0x3f303b6c	0.6884067
21	0x3f5d7389	0.8650442
22	0x3f2f210b	0.68409795
23	0x3f436a1e	0.76333797

dec2.1.bias f4 [24]
0	0x3d859845	0.06523184
1	0xbdf63d51	-0.12023414
2	0xbe8ea66b	-0.27861342
3	0xbe755370	-0.2395761
4	0x3eb38803	0.35064706
5	0xbdb8bcaa	-0.0902036
6	0x3e919e57	0.28441116
7	0xbe47866d	-0.19484873
8	0xbe9f25b0	-0.3108344
9	0x3d9d0635	0.076671995
10	0xbe713e6c	-0.23558968
11	0x3e28d4b1	0.16487385
12	0x3c896758	0.016772911
13	0xbe81e676	-0.2537114
14	0x3cf38c26	0.029729914
15	0x3e6f06f5	0.23342498
16	0xbebf7573	-0.37394294
17	0xbec41049	-0.38293675
18	0xbef07a31	-0.46968225
19	0xbec6bbee	-0.38815254
20	0xbd415d08	-0.047207862
21	0xbe043454	-0.12910587
22	0xbe6eba11	-0.23313166
23	0xbdf0c244	-0.11755803

dec2.1.running_mean f4 [24]
0	0xbe369234	-0.1782921
1	0x3e5433d7	0.207229
2	0xbeecd72e	-0.4625792
3	0x3ddfab6c	0.10921368
4	0x3e031ca1	0.1280389
5	0x3b8fb3cb	0.0043854467
6	0xbe2daea9	-0.16961159
7	0xbec1fbda	-0.3788746
8	0xbed5c5aa	-0.41752368
9	0xbefe6f1b	-0.49694142
10	0x3dc52a4a	0.096272066
11	0x3ce86008	0.028366104
12	0xbd86c0e2	-0.06579758
13	0xbe57732b	-0.21040027
14	0x3df070b0	0.117402434
15	0xbdcd92af	-0.10037743
16	0xbed7d353	-0.42153415
17	0xbec53d22	-0.38523203
18	0x3ea973e2	0.33096224
19	0xbeb3ded0	-0.3513093
20	0x3d8cebf9	0.06880946
21	0x3cd3f904	0.025875576
22	0xbab3116a	-0.0013661806
23	0xbd0d3149	-0.03447083

dec2.1.running_var f4 [24]
0	0x3e25e38d	0.16200085
1	0x3f824fe5	1.0180632
2	0x3f31e79e	0.69494045
3	0x3e9dca8a	0.30818588
4	0x3d8b602d	0.068054534
5	0x3d93c0e8	0.07214528
6	0x3e7c3ad3	0.24631815
7	0x3f048879	0.5177074
8	0x3f3e7f2c	0.744128
9	0x3fb2fdf5	1.3983752
10	0x3ee4d99a	0.44697267
11	0x3e37f6da	0.1796526
12	0x3e66a4ab	0.22523753
13	0x3f6a1816	0.91443
14	0x3e82bc13	0.25534114
15	0x3e030a08	0.12796795
16	0x3f5d8356	0.8652853
17	0x3f1cba7c	0.6122205
18	0x3eb4bfd3	0.353026
19	0x3f0fe7ef	0.5621328
20	0x3efa179a	0.48846132
21	0x3e8f23eb	0.2795709
22	0x3ea4f167	0.32215425
23	0x3ebfaff7	0.37438938

dec3.0.weight f4 [48, 16, 3, 3]
0	0xbc9e23a8	-0.019304112
1	0x39fe1141	0.0004845951
2	0x393c9880	0.00017985888
3	0xbcca0fc0	-0.024665713
4	0x3d9b3b86	0.075797126
5	0x3d0442e0	0.03229034
6	0x3d51687d	0.05112504
7	0x3d2fa328	0.042880207
8	0x3d8c2155	0.06842295
9	0x3c0ccec4	0.008594219
10	0x3ba765de	0.005108579
11	0xbc3f8a08	-0.011690624
12	0xbbbca0ba	-0.005756465
13	0xbc31410a	-0.010818729
14	0xbd05195d	-0.03249489
15	0x3c6ba804	0.01438332
16	0xbc945505	-0.018106947
17	0xbcacdddc	-0.021101885
18	0x3bc4654c	0.005993521
19	0x3e515a5d	0.20444627
20	0xbc237c2e	-0.009978337
21	0x3e52f32c	0.20600575
22	0x3ab075e3	0.0013462867
23	0x3e5b1d93	0.21398
24	0xbcb8a2c0	-0.022538543
25	0x3e11a9eb	0.14224975
26	0xbd083c0e	-0.033260398
27	0xbb2f889b	-0.0026784304
28	0xbe018b4b	-0.12650792
29	0x3cbfda13	0.023419416
30	0x3cf08dad	0.029364431
31	0x3d42b08a	0.047531642
32	0x3cf0d85d	0.029400045
33	0x3cb90dda	0.022589613
34	0xbdf7ef86	-0.12106232
35	0x3d148105	0.036255855
36	0x3c08ccc3	0.0083496
37	0xbd132ddb	-0.035932403
38	0xbc04ab23	-0.008097443
39	0xbcd808cb	-0.02637138
40	0xbd07b909	-0.033135448
41	0xbbf239b7	-0.007392134
42	0x3c796a31	0.015223072
43	0xbcec7127	-0.028862549
44	0xbc00e477	-0.00786697
45	0xbb2cddbe	-0.0026377286
46	0xbd018bcb	-0.031627458
47	0xbd0e461c	-0.03473483
48	0x3dc06468	0.09394151
49	0xbd8222fd	-0.0635433
50	0x3d30cbed	0.04316323
51	0x3ba8892f	0.0051433067
52	0xbcab6da4	-0.020926304
53	0xbcda0fc3	-0.026618844
54	0xbd5bf2c2	-0.05369831
55	0x3d125c00	0.03573227
56	0xbd6446e8	-0.055731684
57	0x3ae2481f	0.0017263925
58	0x3de711d6	0.11282699
59	0xbc12ca6c	-0.008959394
60	0xbd920c5c	-0.071312636
61	0x3cde8944	0.027165063
62	0xbd9975c0	-0.07493162
63	0x3c424655	0.011857589
64	0xbd9f0c50	-0.0776602
65	0x3cf0f9e3	0.02941603
66	0x3dda9f5a	0.10674925
67	0x39696ab1	0.00022260357
68	0x3e1aeb92	0.15128925
69	0x3d10ab63	0.035319697
70	0xbc79f96c	-0.015257221
71	0x3d89b450	0.06723845
72	0xbc1f7a8a	-0.009733805
73	0xbd0745b2	-0.03302545
74	0xbcd4097a	-0.025883425
75	0xbd8e1da4	-0.06939247
76	0x3d3421dd	0.043977607
77	0xbdb67e1c	-0.08910772
78	0x3b97eaec	0.004636159
79	0xbd1fb8b8	-0.03899452
80	0xbc895432	-0.01676378
81	0xbdf0f293	-0.11765017
82	0x3e0094f8	0.12556827
83	0xbdaa48bd	-0.08314655
84	0xbcf53eab	-0.029937109
85	0xbd7092be	-0.058733694
86	0xbd931006	-0.071807906
87	0x3c7495ad	0.014928264
88	0x3e3216af	0.17391466
89	0x3d4e27a7	0.050330784
90	0xbd047e1c	-0.03234683
91	0x3d165810	0.036705077
92	0x3ce44ed4	0.02786962
93	0x3ccada58	0.024762318
94	0xbc45e497	-0.012078426
95	0x3da34a15	0.079731144
96	0x3ce38bac	0.027776562
97	0x3dc6a60c	0.0969964
98	0x3dd72d63	0.10506704
99	0xbd933057	-0.071869545
100	0xbd4ede0f	-0.05050474
101	0xbd26c2f7	-0.040713277
102	0x3c705be4	0.014670346
103	0xbe0b8abf	-0.13627146
104	0x3d764c19	0.060131166
105	0x3c75fdde	0.01501414
106	0x3d373d41	0.04473615
107	0x3d9d8220	0.07690835
108	0xbd53f413	-0.05174644
109	0xbdaff724	-0.0859206
110	0xbca119e9	-0.019665675
111	0xbd3cda91	-0.04610688
112	0xbd2d501e	-0.042312734
113	0xbcdbe243	-0.026841288
114	0xbd36a968	-0.044595152
115	0x3d85d1cb	0.065341555
116	0x3b23d745	0.0025000137
117	0x3e09630d	0.13416691
118	0x3e07bd56	0.1325582
119	0x3e279fa7	0.16369496
120	0x3d3ea729	0.046546135
121	0x3e9a2dac	0.3011297
122	0x3d65fade	0.05614745
123	0x3da26b50	0.079306245
124	0x3d833147	0.06405883
125	0x3df67eb2	0.12035884
126	0xbdb6fcb8	-0.08934921
127	0xbc612384	-0.013741378
128	0xbd9e5b14	-0.077322155
129	0xbbcefeb4	-0.006316984
130	0xbd42f110	-0.047593176
131	0xbc91ddc2	-0.017805938
132	0xbd92333f	-0.07138681
133	0xbca9a82b	-0.020710072
134	0xbd9bea21	-0.07613016
135	0x3d22c70b	0.039740603
136	0x3d8885e4	0.066661626
137	0x3d195476	0.037434064
138	0x3d911e25	0.07085828
139	0x3cfc5a73	0.030804848
140	0x3d9b9abf	0.07597875
141	0x3d1d37f5	0.038383443
142	0x3d5a98fc	0.053368554
143	0x3cfe2825	0.031025002
144	0xbc81bb7f	-0.015836475
145	0xbbd10972	-0.0063793
146	0xbc6512bb	-0.0139815165
147	0x3c10eb12	0.008845108
148	0x3da3f794	0.08006206
149	0x3c4481a6	0.011993801
150	0xbc3d81d0	-0.011566594
151	0x3c02928b	0.007969509
152	0xbc3832f6	-0.011242619
153	0x3ce9b4bf	0.02852857
154	0x3e3c51c7	0.1839057
155	0x3d202b03	0.03910352
156	0x3e23fac9	0.16013636
157	0x3e28a8ee	0.16470692
158	0x3e2c1fa4	0.16808945
159	0x3c05e93e	0.008173285
160	0x3e6dd245	0.23224743
161	0x3ce74b23	0.02823407
162	0xbc92bf36	-0.017913442
163	0xbd3bdbd6	-0.04586395
164	0xbcf6c308	-0.030122295
165	0xbd63606b	-0.055511873
166	0x3c19c5d3	0.009385544
167	0xbd810b7d	-0.06301019
168	0xbc63b2f6	-0.013897648
169	0xbd0582aa	-0.032595314
170	0xbc58461f	-0.013200312
171	0x3b0accbf	0.0021179167
172	0x3d7f5caf	0.06234425
173	0xbbac541a	-0.005259049
174	0xbcfe8776	-0.031070452
175	0xbd0aa9cc	-0.033853337
176	0xbd3082c1	-0.043093447
177	0x3c3a86fb	0.011384721
178	0x3d951523	0.07279422
179	0xba776a31	-0.0009438126
180	0x3ca82ec3	0.02053011
181	0x3e1e6b83	0.154707
182	0x3d14ca6e	0.036325864
183	0x3ba6e6ed	0.0050934465
184	0x3e45c7bf	0.19314478
185	0x3ca2565f	0.019816576
186	0x3d0c9791	0.034324232
187	0x3ddb83bd	0.107184865
188	0x3d556b34	0.05210419
189	0x3e237ba8	0.1596514
190	0x3d4d0e05	0.0500622
191	0x3e349024	0.1763311
192	0x3d06fe60	0.032957435
193	0x3cf732f8	0.030175671
194	0x3d170de4	0.03687848
195	0x3e317c78	0.17332637
196	0x3d76cee2	0.060255893
197	0x3e476443	0.1947184
198	0x3cc1623b	0.02360641
199	0xbd7af673	-0.06127019
200	0x3cc7e36b	0.024400434
201	0xbd86602d	-0.06561313
202	0xbe47642a	-0.19471803
203	0xbda19ce7	-0.07891255
204	0x3d5c593e	0.053796045
205	0xbd90e391	-0.07074655
206	0x3d400e17	0.046888437
207	0x3c931b62	0.017957393
208	0xbba454fd	-0.005015014
209	0x3c8e9e89	0.01740958
210	0xbb896796	-0.0041932566
211	0x3ba58a63	0.0050518974
212	0x3c7c657c	0.015405055
213	0xbadf56eb	-0.0017039453
214	0x39e885ca	0.0004435017
215	0xbbff24d8	-0.0077863745
216	0x3e32d9e5	0.17465933
217	0x3db06894	0.08613697
218	0x3e428b36	0.18998417
219	0xbcdafa21	-0.026730599
220	0x3dc37385	0.09543518
221	0xbc939d46	-0.01801933
222	0x3e1aa352	0.15101364
223	0x3da0fa80	0.07860279
224	0x3e2b842d	0.1674964
225	0xbbc7f5c4	-0.0061022956
226	0xbd829abd	-0.0637717
227	0xbbeace95	-0.00716574
228	0x3c8307eb	0.015994987
229	0xbcab31c2	-0.02089775
230	0x3c3abac3	0.0113970665
231	0x3a669bc5	0.0008797015
232	0xbe0e8159	-0.1391653
233	0xbba9f588	-0.0051867403
234	0xbd468574	-0.048467115
235	0x3d00a94a	0.031411447
236	0xbd68163b	-0.056661826
237	0x3c286a95	0.010279317
238	0x3dae2299	0.08502693
239	0x3c89e70b	0.016833803
240	0xbdb0e308	-0.08637053
241	0x3cae46d2	0.021274004
242	0xbdda7127	-0.10666113
243	0xbbb43b65	-0.0055002444
244	0xbc568cdb	-0.013095106
245	0x3bb417e7	0.0054960134
246	0xbd57302f	-0.052536186
247	0xbca99376	-0.020700198
248	0xbd3abf4c	-0.04559259
249	0xbc3926e6	-0.011300778
250	0xbd64fc81	-0.05590487
251	0xbc3772b8	-0.011196785
252	0x3b223aab	0.0024754207
253	0x3cab828c	0.020936273
254	0x3b8337e8	0.0040044673
255	0x3ab0260f	0.0013439077

dec3.0.bias f4 [16]
0	0x36c4ba10	5.8629157e-06
1	0xb60ed49d	-2.1283406e-06
2	0xb6fe7140	-7.582974e-06
3	0xb695b75e	-4.461893e-06
4	0x3787f473	1.6207085e-05
5	0x3624858e	2.4515643e-06
6	0xb6ff0c4a	-7.601023e-06
7	0xb7a88cf1	-2.0092792e-05
8	0xb75795dd	-1.2849891e-05
9	0xb6c23e9d	-5.7889397e-06
10	0xb76dcc98	-1.41739365e-05
11	0xb74e5791	-1.2298945e-05
12	0xb732f379	-1.0666315e-05
13	0x3667f6c0	3.456531e-06
14	0x37d3ed32	2.5263613e-05
15	0x36cf5db0	6.1799874e-06

dec3.1.weight f4 [16]
0	0x3f949e83	1.1610874
1	0x3fa2e943	1.2727436
2	0x3f9ea41b	1.2393831
3	0x3fa3e2fb	1.2803644
4	0x3f8caef8	1.0990896
5	0x3f99e49a	1.2022889
6	0x3fac2b48	1.3450708
7	0x3f970b79	1.1800376
8	0x3fa87f49	1.3163844
9	0x3f9ab0b2	1.2085173
10	0x3fb0c6f2	1.3810713
11	0x3fc8bc90	1.5682545
12	0x3f937456	1.1519878
13	0x3f981356	1.1880901
14	0x3fb15e43	1.3856891
15	0x3f9ce374	1.2256913

dec3.1.bias f4 [16]
0	0x3e68ff97	0.2275375
1	0x3e4d9c0e	0.20079061
2	0x3f0005e2	0.50008976
3	0x3e7eaeb7	0.24871336
4	0x3de9d349	0.114172526
5	0x3e3b90f3	0.18317012
6	0x3eabbf26	0.33544272
7	0x3e9e0892	0.30865914
8	0x3e4287b8	0.18997085
9	0x3ec4f6fa	0.38469678
10	0x3eb72957	0.35773727
11	0x3eb4830d	0.35256234
12	0x3e86946f	0.2628512
13	0x3f117990	0.56826115
14	0x3db90211	0.09033597
15	0x3eab2868	0.33429265

dec3.1.running_mean f4 [16]
0	0x3ec5f9de	0.38667196
1	0x3d744a67	0.059641268
2	0xbe8b1d15	-0.27170625
3	0x3e73623f	0.23767947
4	0xbb94b01b	-0.004537595
5	0xbddffe2f	-0.109371535
6	0x3d41d509	0.047322307
7	0x3e232009	0.15930189
8	0xbd9a6669	-0.075390644
9	0x3e43e0a7	0.19128667
10	0x3f09ad50	0.5378008
11	0x3c2fbffb	0.010726924
12	0x3e3897fa	0.18026724
13	0x3d53928d	0.051653434
14	0xbca35a39	-0.019940482
15	0xbd93c328	-0.072149575

dec3.1.running_var f4 [16]
0	0x3edcc582	0.43119437
1	0x3f1637d8	0.5867896
2	0x3e6b4bcb	0.22978131
3	0x3f027cae	0.50971496
4	0x3e9a1cd9	0.30100134
5	0x3f5374ee	0.82600296
6	0x3f05197c	0.5199201
7	0x3f025f9f	0.50927156
8	0x3f3a7a9d	0.72843343
9	0x3f17b9cf	0.59267896
10	0x3f52efe3	0.8239729
11	0x3e6bdee3	0.23034243
12	0x3ec3973f	0.3820133
13	0x3e888d83	0.26670465
14	0x3f142a46	0.57877004
15	0x3f115e94	0.5678494

final.weight f4 [3, 32, 1, 1]
0	0x3efcf64d	0.49406663
1	0xbea874ab	-0.3290151
2	0x3d1fd7fe	0.039024346
3	0x3f0a69cc	0.54067683
4	0xbe566479	-0.20936765
5	0xbeac173a	-0.3361147
6	0x3ef1d101	0.4722977
7	0x3ede258e	0.43388027
8	0xbed852c0	-0.42250633
9	0x3f0ecf53	0.557851
10	0x3eb69ee1	0.3566809
11	0xbe1e8743	-0.15481286
12	0x3f17fe6e	0.59372604
13	0x3e9136b3	0.28362045
14	0xbeffa88e	-0.49933285
15	0xbe0b7eee	-0.13622639
16	0x3d1fdb4e	0.039027505
17	0x3e89aeb2	0.26891094
18	0xbd0b007b	-0.033936005
19	0xbe2e7ab5	-0.17038997
20	0x3d012a64	0.031534567
21	0x3e3cae71	0.18425919
22	0x3dfc25f6	0.12311928
23	0xbd934297	-0.071904354
24	0xbde8c19c	-0.11365053
25	0x3ca2da48	0.019879475
26	0x3e6e2c80	0.23259163
27	0x3d6e40d4	0.058167294
28	0x3e09a555	0.13441975
29	0x3dc9238b	0.098212324
30	0xbd35852a	-0.04431645
31	0xbd414ba7	-0.04719129
32	0xbeea9747	-0.4581854
33	0xbeeea2b9	-0.46608523
34	0xbf829c79	-1.0204002
35	0xbe7a622b	-0.2445151
36	0xbee0be46	-0.43895167
37	0xbecfc6f9	-0.40581492
38	0x3e60aaae	0.21940109
39	0xbf41ae3e	-0.756565
40	0xbec6145c	-0.38687408
41	0xbf130cf7	-0.5744166
42	0x3eca8a3a	0.39558583
43	0x3f3d468c	0.7393577
44	0xbe662160	-0.22473669
45	0xbf79a6dc	-0.9752023
46	0xbf04e33f	-0.5190925
47	0xbf40bc25	-0.75287086
48	0xbc67f33b	-0.014157112
49	0x3e090b7f	0.13383292
50	0xbd9c1cc4	-0.07622674
51	0x3861a1ea	5.3794975e-05
52	0xbe867186	-0.26258487
53	0xbf06322b	-0.524203
54	0xbec3ed2e	-0.3826689
55	0xbe9c8a12	-0.3057409
56	0x3c6eff0e	0.014587177
57	0x3ea062b5	0.31325307
58	0xbee66615	-0.44999757
59	0x3e72037a	0.23634139
60	0xbe18972d	-0.14901419
61	0xbe5a05fc	-0.21291345
62	0xbcef1e08	-0.029189125
63	0xbd0b8d9c	-0.034070596
64	0xbecb8ad2	-0.3975435
65	0x3f06649d	0.52497274
66	0x3e539baf	0.20664857
67	0xbf1b3785	-0.6063159
68	0x3ee39842	0.444521
69	0x3eaff2ed	0.34365025
70	0xbf476695	-0.778909
71	0xbe6f9707	-0.23397456
72	0x3f0bd44d	0.5462082
73	0xbe516e71	-0.20452286
74	0xbf252553	-0.6451008
75	0xbf120376	-0.5703653
76	0xbed0e53f	-0.407999
77	0x3e277ccf	0.16356204
78	0x3eff4b90	0.49862337
79	0x3edf8838	0.43658614
80	0xbd665a80	-0.05623865
81	0xbea911d8	-0.33021426
82	0xbdd368cf	-0.10322725
83	0xbd739771	-0.059470598
84	0x3e41f027	0.18939267
85	0xbd9f960f	-0.07792293
86	0x3d3c74a1	0.046009663
87	0x3d8a652e	0.0675758
88	0x3d81783b	0.0632176
89	0xbdb97314	-0.090551525
90	0xbd5a0bc8	-0.05323389
91	0x3d99794e	0.0749384
92	0x3dd7c303	0.105352424
93	0x3e44e999	0.19229735
94	0xbd9cb31a	-0.076513484
95	0xbde17cae	-0.11010109

final.bias f4 [3]
0	0x3e4ddf9d	0.20104833
1	0xbe8d736e	-0.27627128
2	0x3ce9b7c6	0.028530013

onnx::Conv_235 f4 [16, 3, 3, 3]
0	0xbb9c948b	-0.00477845
1	0xbcfb7d1c	-0.030699305
2	0x3de01358	0.109411895
3	0x3d2b0a3f	0.04175782
4	0x3d8c0f65	0.06838874
5	0x3d739fc5	0.05947854
6	0x3d1a4d9d	0.037671674
7	0x3bdb9f86	0.0067023663
8	0x3e213d9a	0.15746155
9	0x3e2622f6	0.16224274
10	0x3e253908	0.16135037
11	0x3ce8191a	0.028332282
12	0x3e2255f1	0.15853097
13	0x3e20d887	0.15707599
14	0x3e24626e	0.16053173
15	0x3e0042b9	0.12525453
16	0x3c649f41	0.013953985
17	0xbc445919	-0.011984133
18	0xbe15123f	-0.14557742
19	0x3c6e16e8	0.014531828
20	0x3cb7c0c8	0.022430792
21	0xbe2ea2ed	-0.17054339
22	0xbe5ec95e	-0.21756503
23	0xbdb0e167	-0.08636742
24	0xbe4bf3cb	-0.19917218
25	0xbd50ab0c	-0.050944373
26	0xbe0fdf9e	-0.14050147
27	0xbc8b7148	-0.01702179
28	0xbe56b165	-0.20966108
29	0xbe654576	-0.22389778
30	0xbd176e45	-0.036970396
31	0xbd24adf7	-0.04020497
32	0xbdca7c6f	-0.09887015
33	0x3cd0e4d1	0.025499733
34	0xbe478f96	-0.19488367
35	0x3ce71c86	0.028211843
36	0x3d77b1b9	0.060472224
37	0x3e59954a	0.21248356
38	0x3e5b0d3f	0.21391772
39	0x3bc98083	0.006149353
40	0x3dedd6e6	0.11613254
41	0x3e31ec38	0.17375267
42	0x3dafe977	0.08589452
43	0x3e86530a	0.2623523
44	0x3e6a080a	0.22854629
45	0xbdc9a71f	-0.09846329
46	0xbe5bb710	-0.21456552
47	0x3c7b6550	0.015343979
48	0xbe2ebd2a	-0.17064348
49	0xbdca1539	-0.09867329
50	0xbd944891	-0.072404034
51	0xbd7d32a2	-0.061815865
52	0x3ca6d6c8	0.020366088
53	0xbd3e6f97	-0.04649314
54	0x3e2dcaff	0.16971968
55	0x3e48778c	0.19576854
56	0x3d5b990d	0.053612757
57	0x3e3bcf4b	0.18340795
58	0x3e42041a	0.18946877
59	0x3eaaed2f	0.33384082
60	0x3db6935a	0.08914824
61	0x3d2339b1	0.03984994
62	0x3e10193a	0.14072123
63	0xbe077f4b	-0.13232152
64	0xbdec86a1	-0.11549116
65	0xbde811a2	-0.11331488
66	0xbe65b4b5	-0.22432216
67	0x3c842567	0.016131116
68	0xbcef097b	-0.029179325
69	0xbc8fa7e7	-0.017536117
70	0xbe3e455b	-0.18581145
71	0xbd908b4d	-0.070578195
72	0xbd1f70fd	-0.038926113
73	0xbd6f801d	-0.058471788
74	0x3e242d81	0.16032983
75	0x3da090d0	0.07840121
76	0x3df9e1ed	0.12201295
77	0xbdd6e08a	-0.10492046
78	0xbd30a0c8	-0.043122083
79	0xbdc18b8b	-0.09450444
80	0xbdf19c80	-0.11797428
81	0xbd41ae8e	-0.04728561
82	0xbc95402e	-0.01821908
83	0x3ca3c67a	0.019992102
84	0xbd3ca317	-0.046053972
85	0x3d35a17d	0.04434346
86	0xbe04d3e9	-0.12971462
87	0xbcf10c07	-0.02942468
88	0xbd3183fa	-0.043338753
89	0x3d945899	0.07243461
90	0xbe526654	-0.20546848
91	0xbd34ee42	-0.044172533
92	0xbe42b2d9	-0.19013537
93	0xbe413d0f	-0.18870948
94	0xbd8d05ad	-0.06885848
95	0xbe2bec4c	-0.16789359
96	0xbdf0f3b2	-0.11765231
97	0xbd22a11f	-0.03970444
98	0xbb6e15f9	-0.0036329015
99	0x3e7cc188	0.24683201
100	0x3d7a79a8	0.061151177
101	0x3e478a78	0.19486415
102	0x3e80dc4c	0.25168073
103	0x3e063c30	0.13108897
104	0x3e37dae1	0.1795459
105	0x3dde9231	0.108677275
106	0x3e5d00d7	0.21582352
107	0x3e3545bc	0.17702383
108	0x3d58b975	0.05291124
109	0xbda111ad	-0.078646995
110	0xbe2f51aa	-0.17120996
111	0x3e195c9b	0.14976732
112	0xbe01df77	-0.12682901
113	0xbbc21490	-0.0059228614
114	0x3d48bfbd	0.04901098
115	0xbc283fcc	-0.010269117
116	0xbd9b1355	-0.07572047
117	0x3a64df5a	0.0008730792
118	0x3bc35c59	0.0059619364
119	0xbd13b822	-0.036064275
120	0xbe167ec0	-0.14696789
121	0xbdc1a2f3	-0.09454908
122	0xbe8278ec	-0.2548288
123	0xbe633931	-0.22189786
124	0xbe05b53d	-0.13057418
125	0xbe6a5fb7	-0.22888075
126	0xbb932805	-0.0044908547
127	0x3d3bc6e9	0.045843992
128	0x3e6c59fb	0.230812
129	0xbc6d29b8	-0.014475279
130	0x3e71c2e0	0.23609495
131	0x3e480d10	0.19536233
132	0x3dceee30	0.101040244
133	0xbd7f8709	-0.06238464
134	0xbbab9ddc	-0.005237324
135	0x3c90fa6a	0.017697532
136	0x3e5c7477	0.21528803
137	0x3e26763b	0.16256039
138	0xbd747bde	-0.05968844
139	0xbd142b9f	-0.036174413
140	0xbd0c0d25	-0.034192223
141	0xbe1f941b	-0.15583842
142	0xbdfff6e2	-0.12498261
143	0xbca801e9	-0.020508723
144	0x3e07403f	0.13208102
145	0x3d8e89aa	0.06959851
146	0x3e176973	0.1478632
147	0x3d06697b	0.032815438
148	0xbd9707ff	-0.07374572
149	0x3dbd7c00	0.09252167
150	0xbdc6b38a	-0.09702213
151	0x3c635747	0.013875789
152	0xbd859d2e	-0.0652412
153	0x3df52927	0.1197074
154	0xbdb938d7	-0.090440445
155	0x3d7e3864	0.062065497
156	0x3ba82e93	0.005132505
157	0xbe900b4e	-0.28133625
158	0xbdd652d0	-0.10465014
159	0xbcc424c7	-0.023943318
160	0xbe8b22ad	-0.27174893
161	0xbe620312	-0.22071484
162	0x3d9b238d	0.0757514
163	0x3e1b213a	0.15149394
164	0x3e561f33	0.20910339
165	0x3e65e118	0.22449148
166	0x3e2d9bef	0.16954015
167	0x3e067e0a	0.13134018
168	0xbb02150e	-0.0019848975
169	0x3dbd59b4	0.09245625
170	0x3c047c0c	0.008086216
171	0xbd0d9955	-0.034570057
172	0xbd1eb97c	-0.03875111
173	0xbe4737cc	-0.19454879
174	0xbe66ec31	-0.22551037
175	0xbe6fcd07	-0.23418055
176	0xbe865d6b	-0.26243147
177	0xbc51bab9	-0.012800866
178	0x3d00ba0c	0.031427428
179	0xbd401044	-0.046890512
180	0x3da880bb	0.082276784
181	0xbe3d91ea	-0.18512693
182	0xbd2986db	-0.041388374
183	0xbd6e4059	-0.058166835
184	0xbe8b7904	-0.27240765
185	0xbe3af6e3	-0.18258242
186	0x3e075800	0.13217163
187	0xbe89e913	-0.26935634
188	0x3d2af445	0.04173686
189	0x3dda80d6	0.10669105
190	0x3e73a09a	0.23791733
191	0x3e17ef8e	0.14837477
192	0x3b8cc226	0.0042956052
193	0x3dfcedb5	0.123500265
194	0x3db9d6fa	0.09074207
195	0x3da6f95b	0.081530295
196	0x3e800348	0.25002503
197	0x3e81bc1a	0.25338823
198	0xbe291081	-0.16510202
199	0xbe5f0c3b	-0.2178201
200	0xbd56c3a2	-0.052432664
201	0xbe9d82a5	-0.30763736
202	0xbe83f258	-0.2577083
203	0xbe979fa2	-0.29613978
204	0xbe412578	-0.1886195
205	0xbe73d8ae	-0.23813125
206	0xbe92d569	-0.28678444
207	0x3d466f98	0.048446268
208	0xbd803978	-0.06260961
209	0xbd914acd	-0.07094345
210	0x3e82aa6a	0.2552064
211	0xbda3ee3a	-0.080044225
212	0x3de84b4b	0.11342486
213	0x3e432382	0.19056514
214	0xbd74e0ed	-0.05978482
215	0x3e8175ff	0.25285336
216	0xbd49cfb3	-0.049270343
217	0x3e4b5b7a	0.19859114
218	0x3c9f6efe	0.019462105
219	0x3c8818ef	0.016613452
220	0xbb80bd71	-0.003928833
221	0xbcc7cf80	-0.024390936
222	0xbe17dd3d	-0.1483049
223	0xbe6c7c33	-0.23094253
224	0xbd80449c	-0.06263086
225	0xbe40b66b	-0.18819587
226	0xbbeebf00	-0.0072859526
227	0x3d09b321	0.033618096
228	0x3e0c9e2b	0.13732211
229	0x3e5b1bf6	0.21397385
230	0x3e327952	0.17429093
231	0x3dc0bbd8	0.09410828
232	0x3dfecfa5	0.12441949
233	0xbdd5fa9d	-0.10448191
234	0x3cb5c6a4	0.022189446
235	0x3dc413e7	0.095741086
236	0x3e8707e2	0.26373202
237	0x3db1b3d3	0.08676877
238	0x3e03d478	0.12874019
239	0x3d59b8fa	0.053154923
240	0xbc33681e	-0.010950116
241	0xbdd294a9	-0.10282261
242	0xbe323236	-0.17401966
243	0x3d00e709	0.031470332
244	0x3d7aedfd	0.06126212
245	0x3db1a40e	0.08673869
246	0xba9517e5	-0.0011374919
247	0xbccacbe1	-0.02475542
248	0xbbdba984	-0.0067035574
249	0xbb27cb8c	-0.00256035
250	0x3d4bf0da	0.04979024
251	0x3c3b67c1	0.011438311
252	0x3d882685	0.06647972
253	0x3dc3c588	0.095591605
254	0x3d01572d	0.031577278
255	0x3c662585	0.014047031

onnx::Conv_236 f4 [16]
0	0x3dda9277	0.10672467
1	0xbee2cc30	-0.44296408
2	0x3f91729a	1.1363099
3	0x3e9c190c	0.3048786
4	0x3e84ab4b	0.25911936
5	0xbdf1dbca	-0.118094996
6	0x3f10892f	0.56459326
7	0x3f95bfc0	1.1699142
8	0x3da161e3	0.078799985
9	0xbe61894a	-0.22025028
10	0xbf4b2793	-0.7935726
11	0xbe97eecd	-0.29674378
12	0xbe8793d3	-0.26479968
13	0xbf0874cf	-0.53303236
14	0x3f32afa6	0.6979927
15	0x3f284dc3	0.65743655

onnx::Conv_238 f4 [64, 16, 1, 1]
0	0x3cf26f55	0.029594103
1	0xbe31e6cf	-0.17373203
2	0x3d9a53e5	0.07535533
3	0xbd414aa0	-0.04719031
4	0x3d8ac186	0.06775193
5	0x3e21561e	0.15755507
6	0xbdcc1773	-0.0996541
7	0xbda0cca3	-0.07851531
8	0x3e3565ec	0.17714661
9	0xbc36c6a1	-0.011155755
10	0x3df03d43	0.11730435
11	0x3a94f7d5	0.0011365364
12	0xbde32d4e	-0.110926256
13	0xbcabe4c2	-0.020983104
14	0xbdd85e45	-0.105648555
15	0x3e043605	0.12911232
16	0x3cb2ddd8	0.021834299
17	0xbcf8ddce	-0.030379202
18	0xbc34d441	-0.011036933
19	0xbdfb36ba	-0.12266298
20	0xbbb6abd4	-0.0055746827
21	0x3e6b4720	0.22976351
22	0xbcef3a35	-0.02920256
23	0x3c083f76	0.0083159115
24	0x3d5576fb	0.05211542
25	0xbd4c4c09	-0.0498772
26	0x3de0cd4e	0.10976659
27	0x3d2f382b	0.042778175
28	0xbc6ba9f6	-0.014383784
29	0x3e190783	0.14944272
30	0xbd9d0fab	-0.07669004
31	0x3dab6066	0.08367996
32	0x3d0748f8	0.033028573
33	0x3d835831	0.064133056
34	0x3da0acb2	0.07845439
35	0xbc335f15	-0.010947962
36	0xbd6f3102	-0.058396347
37	0x3cc21335	0.0236908
38	0x3cd698db	0.026195934
39	0xbd944994	-0.072405964
40	0x3dccef36	0.10006563
41	0x3e553aa3	0.2082315
42	0x3dd99b65	0.10625342
43	0x3d62f4e3	0.055409323
44	0x3d0bed2c	0.03416173
45	0xbbe4c83c	-0.0069818776
46	0x3df08fa9	0.11746151
47	0xbd70eace	-0.058817677
48	0x3e4a1b5a	0.19736996
49	0x3d923e8a	0.07140835
50	0x3dc85d73	0.09783449
51	0xbca10dbe	-0.019659873
52	0xbd9202af	-0.07129418
53	0x3d260b58	0.040538162
54	0x3d2a4cf7	0.041577306
55	0xbdb70f99	-0.08938522
56	0x3d4e15e2	0.050313838
57	0x3d82e3bc	0.06391093
58	0xbc4ad9db	-0.012381042
59	0xbda2fb97	-0.07958143
60	0x3dfe2b42	0.124105945
61	0x3c86afc4	0.016441233
62	0x3d35306c	0.04423563
63	0x3dc454f5	0.09586517
64	0x3cb79793	0.022411143
65	0x3e1f714e	0.15570566
66	0xbd6e4a7c	-0.058176503
67	0xbd884341	-0.06653453
68	0xbda111a0	-0.0786469
69	0x3b877470	0.0041337535
70	0x3c0045fa	0.007829184
71	0xbdd51119	-0.10403652
72	0xbda0321a	-0.07822056
73	0x3cf5e533	0.030016517
74	0x3ce76ca4	0.028250046
75	0x3cf33a73	0.029690957
76	0x3b951c88	0.0045505203
77	0x3c006533	0.007836628
78	0xba62df5b	-0.00086544984
79	0x3caec166	0.021332454
80	0x3cb6c954	0.022312798
81	0x3c9e009d	0.019287402
82	0xbd2e1690	-0.042501986
83	0xbdd68cf6	-0.10476105
84	0xbd372acd	-0.044718552
85	0x3da01c75	0.07817928
86	0x3dabb399	0.08383865
87	0xbdb77747	-0.08958297
88	0xbcfff6d6	-0.03124563
89	0x3dd764f0	0.10517299
90	0x3c34b7d2	0.011030154
91	0xbd69eee7	-0.0571126
92	0x3e12fcbf	0.14354227
93	0x3d8967f4	0.067092806
94	0x3d21c315	0.039492685
95	0x3ea5c4dc	0.32376754
96	0x3d807e18	0.062740505
97	0x3d21e58a	0.039525546
98	0xbd3f9d27	-0.04678073
99	0x3b91a8d3	0.0044451742
100	0xbd5eb0cd	-0.05436783
101	0x3c47abb7	0.012186936
102	0xbb08b5a1	-0.0020860212
103	0xbd35d90d	-0.04439645
104	0x3d2648de	0.040596835
105	0xbbcfd649	-0.0063426835
106	0x3dadafe3	0.08480813
107	0x3b890fb5	0.0041827806
108	0x3b7cf29d	0.0038596757
109	0xbcde7fb6	-0.027160507
110	0xbca71611	-0.020396264
111	0x3bce2857	0.00629143
112	0x3c144c23	0.0090513555
113	0xbd656746	-0.056006692
114	0x3e0fc452	0.14039734
115	0x3d5e294e	0.05423861
116	0xbdddfe92	-0.10839571
117	0x3e0a69ba	0.13516894
118	0x3e063f4f	0.13110088
119	0x3e011526	0.12605724
120	0xbcb61e23	-0.022231167
121	0x3da7bfdc	0.08190891
122	0xbdea06fe	-0.11427115
123	0xbdf5b00f	-0.11996471
124	0x3de5ca5f	0.1122024
125	0x3d8da748	0.06916672
126	0x3d891900	0.066942215
127	0x3e436ecf	0.19085239
128	0x3d92a7ce	0.071609125
129	0x3dc841a5	0.09778146
130	0xbb6fa425	-0.0036566344
131	0xbda1fe43	-0.07909825
132	0x3c40c162	0.011764856
133	0xbd42365b	-0.04741512
134	0xbc274f0f	-0.01021172
135	0xbd9406c4	-0.07227853
136	0x3d7e2161	0.06204355
137	0x3caca258	0.021073505
138	0xbdd5bc02	-0.1043625
139	0x3cf1b501	0.029505255
140	0xbdba5468	-0.090981305
141	0x3d8307e2	0.06397988
142	0x3dbb6e72	0.09151925
143	0x3d61016e	0.054933004
144	0xbe317cb0	-0.17332721
145	0x3d6dc0ea	0.058045305
146	0x3cf2af3f	0.02962458
147	0x3e1abede	0.15111873
148	0x3d1302cc	0.03589134
149	0xbdaf705c	-0.08566353
150	0xbd59cc26	-0.053173207
151	0x3d9b8dce	0.075954065
152	0xbbafd5cf	-0.005366064
153	0x3d9c5bb7	0.07634681
154	0xbd60245b	-0.05472217
155	0x3e0a1829	0.13485779
156	0x3d5c3ba0	0.0537678
157	0xbcb05b91	-0.021528037
158	0xbdb99e13	-0.090633534
159	0xbe438d74	-0.19096929
160	0xbcc58c6a	-0.024114806
161	0x3c4ac1e4	0.012375329
162	0xbdf48916	-0.119402096
163	0x3dd5b342	0.10434581
164	0xbe4f6867	-0.2025467
165	0x3c21c0cc	0.0098726265
166	0xbcb43669	-0.021998601
167	0xbe252a8e	-0.16129515
168	0xbda00144	-0.078127414
169	0x3c2cf400	0.010556221
170	0x3d15a5d5	0.036535103
171	0xbac1f54f	-0.0014797839
172	0x3ddf2879	0.108963914
173	0xbddf9917	-0.109178714
174	0xbda9dd9e	-0.08294223
175	0x3dd996ef	0.106244914
176	0x3e21ab8b	0.15788095
177	0x3d302652	0.043005295
178	0x3cb9db6b	0.022687634
179	0xbc875e1d	-0.016524369
180	0xbd87d1c9	-0.0663181
181	0x3dcf2250	0.101139665
182	0x3c9be05e	0.019027885
183	0xbddaceea	-0.10683997
184	0xbd0d5411	-0.034504
185	0x3d5900cb	0.05297927
186	0xbbdfa11b	-0.006824625
187	0xbc9c956c	-0.019114219
188	0x3c86b56e	0.016443934
189	0x3d1370ba	0.035996176
190	0x3bfaba31	0.0076515903
191	0xbd6f939d	-0.058490384
192	0xbd18e911	-0.037331644
193	0xbcd8de55	-0.026473204
194	0x3c558afb	0.013033624
195	0x3d5313ab	0.05153243
196	0x3e129322	0.14313939
197	0xbcb776f6	-0.022395592
198	0x39f5c244	0.0004687478
199	0x3d450bfd	0.048107136
200	0xbb42d831	-0.002973091
201	0xbdc43add	-0.0958154
202	0x3c02f7b5	0.007993628
203	0xbd1a16d1	-0.037619416
204	0xbde3eaef	-0.111287944
205	0x3df0b923	0.11754062
206	0x3be28f02	0.0069140205
207	0xbde95af2	-0.113942996
208	0x3dbb8c04	0.09157565
209	0x3d0a5dba	0.03378079
210	0x3d97de02	0.074153915
211	0x3c827637	0.01592551
212	0x3c3ec103	0.011642697
213	0xbdc875e9	-0.097881146
214	0xbe03c616	-0.12868533
215	0x3de139b6	0.109973356
216	0x3c77ab69	0.015116551
217	0x3c84cb61	0.01621026
218	0xbd59bedf	-0.053160544
219	0x3e0908c8	0.13382256
220	0xbdb18d8f	-0.08669578
221	0xbd6f74ee	-0.058461122
222	0xbcca0b1e	-0.024663504
223	0xbb92af22	-0.004476444
224	0x3d0b5937	0.03402063
225	0x3da2fc84	0.0795832
226	0x3ca3b0e0	0.019981802
227	0xbd8691b4	-0.065707594
228	0xbd027f47	-0.031859662
229	0x3c837ce2	0.01605076
230	0xbd940f5a	-0.072294906
231	0x3ca14577	0.019686444
232	0x3d86839c	0.06568071
233	0x3ea41b96	0.32052296
234	0x3d1b0ca3	0.03785385
235	0x3c93f428	0.018060759
236	0x3dc1f358	0.09470242
237	0x3daa428f	0.08313476
238	0x3d91aba7	0.07112818
239	0xbd176149	-0.036958013
240	0x3d8d55f2	0.069011584
241	0x3d14bddd	0.03631388
242	0x3d0d193d	0.034447897
243	0xbd8a56d9	-0.06754846
244	0xbe9c85a6	-0.30570716
245	0x3e165441	0.14680578
246	0x3de706db	0.112806045
247	0xbc07d35d	-0.008290139
248	0x3d0abc17	0.033870783
249	0xbba5005c	-0.005035443
250	0xbcd7cb6a	-0.026342113
251	0xbe09dfaa	-0.13464227
252	0xbb083ce1	-0.002078824
253	0xbd1a02c4	-0.037600294
254	0xbd5a816b	-0.05334608
255	0x3e27385f	0.16330098

onnx::Conv_239 f4 [64]
0	0x3d8483c7	0.06470447
1	0xbe4c1b95	-0.19932397
2	0xbd9b877c	-0.07594201
3	0xbe049d50	-0.12950635
4	0x3ea6a524	0.32547867
5	0xbe1509ca	-0.14554515
6	0x3d635b53	0.055507015
7	0xbe5a5509	-0.21321501
8	0x3e41b5c6	0.18916997
9	0xbb8a3518	-0.004217755
10	0x3e119a5b	0.14219038
11	0x3cb97348	0.022637978
12	0x3e283894	0.16427833
13	0x3d9ed8a2	0.07756163
14	0xbe3a801f	-0.18212937
15	0x3e44e61b	0.19228403
16	0xbe800680	-0.2500496
17	0xbce7ca4c	-0.028294705
18	0xbde54abd	-0.11195896
19	0x3eaa8fef	0.33312938
20	0xbe9bcd98	-0.30430293
21	0xbefd2400	-0.49441528
22	0xbe8b8148	-0.2724707
23	0xbe4968cf	-0.19668888
24	0x3d996378	0.07489675
25	0xbd4f2b10	-0.050578177
26	0x3da3216f	0.07965361
27	0x3e2c0f2a	0.1680266
28	0xbe8f1f4d	-0.27953568
29	0xbed1cf29	-0.40978363
30	0xbe80f5ac	-0.25187433
31	0x3e784caa	0.24247995
32	0xbe42a526	-0.19008312
33	0xbe1d9fbe	-0.15392968
34	0xbe1a70c4	-0.15082079
35	0x3ed78508	0.42093682
36	0xbead0cbb	-0.33798775
37	0xbeb7765b	-0.35832486
38	0x3ec7b6a6	0.39006537
39	0x3db660f3	0.0890521
40	0x3e05ad14	0.13054305
41	0x3d6a683d	0.057228316
42	0xbd14c79c	-0.036323175
43	0x3e4753d6	0.19465575
44	0xbe3bfa4b	-0.18357198
45	0x3ed77d5e	0.42087835
46	0x3e55e9df	0.20889996
47	0x3e1a39ec	0.15061158
48	0x3dcc9856	0.09989993
49	0xbe048906	-0.12942895
50	0x3e9bd217	0.30433723
51	0xbe6df46a	-0.23237768
52	0xbcb55984	-0.022137411
53	0x3ecd8ba0	0.40145588
54	0x3d2d8618	0.04236421
55	0xbf50be89	-0.81540734
56	0x3dee3af2	0.11632337
57	0x3d5974e2	0.053089984
58	0x3ebab13a	0.36463338
59	0x3d23540e	0.039875083
60	0x3daac00a	0.0833741
61	0xbd5f8980	-0.05457449
62	0x3e8c58f7	0.27411625
63	0xbf063b6e	-0.5243443
